…
2018-12-31 16:00:57.598034: I tensorflow/core/common_runtime/gpu/gpu_device.cc:1105] Found device 0 with properties: 
name: GeForce GTX 980 major: 5 minor: 2 memoryClockRate(GHz): 1.2155
pciBusID: 0000:0f:00.0
totalMemory: 3.95GiB freeMemory: 3.86GiB
2018-12-31 16:00:57.598061: I tensorflow/core/common_runtime/gpu/gpu_device.cc:1195] Creating TensorFlow device (/device:GPU:0) -> (device: 0, name: GeForce GTX 980, pci bus id: 0000:0f:00.0, compute capability: 5.2)
_________________________________________________________________
Layer (type)                 Output Shape              Param #   
=================================================================
dense_1 (Dense)              (None, 50)                2550      
_________________________________________________________________
activation_1 (Activation)    (None, 50)                0         
_________________________________________________________________
dense_2 (Dense)              (None, 100)               5100      
_________________________________________________________________
batch_normalization_1 (Batch (None, 100)               400       
_________________________________________________________________
activation_2 (Activation)    (None, 100)               0         
_________________________________________________________________
dense_3 (Dense)              (None, 100)               10100     
_________________________________________________________________
batch_normalization_2 (Batch (None, 100)               400       
_________________________________________________________________
activation_3 (Activation)    (None, 100)               0         
_________________________________________________________________
dense_4 (Dense)              (None, 100)               10100     
_________________________________________________________________
batch_normalization_3 (Batch (None, 100)               400       
_________________________________________________________________
activation_4 (Activation)    (None, 100)               0         
_________________________________________________________________
dense_5 (Dense)              (None, 100)               10100     
_________________________________________________________________
batch_normalization_4 (Batch (None, 100)               400       
_________________________________________________________________
activation_5 (Activation)    (None, 100)               0         
_________________________________________________________________
dense_6 (Dense)              (None, 100)               10100     
_________________________________________________________________
batch_normalization_5 (Batch (None, 100)               400       
_________________________________________________________________
activation_6 (Activation)    (None, 100)               0         
_________________________________________________________________
dense_7 (Dense)              (None, 3)                 303       
_________________________________________________________________
activation_7 (Activation)    (None, 3)                 0         
=================================================================
Total params: 50,353
Trainable params: 49,353
Non-trainable params: 1,000
_________________________________________________________________
Train on 17645 samples, validate on 5882 samples
Epoch 1/1600
 - 9s - loss: 0.8579 - acc: 0.5981 - val_loss: 0.7177 - val_acc: 0.6704
Epoch 2/1600
 - 7s - loss: 0.6725 - acc: 0.6936 - val_loss: 0.6018 - val_acc: 0.7326
…
