…
2018-12-23 19:53:41.465697: I tensorflow/core/common_runtime/gpu/gpu_device.cc:1105] Found device 0 with properties: 
name: GeForce GTX 980 major: 5 minor: 2 memoryClockRate(GHz): 1.266
pciBusID: 0000:0f:00.0
totalMemory: 3.95GiB freeMemory: 3.86GiB
2018-12-23 19:53:41.465720: I tensorflow/core/common_runtime/gpu/gpu_device.cc:1195] Creating TensorFlow device (/device:GPU:0) -> (device: 0, name: GeForce GTX 980, pci bus id: 0000:0f:00.0, compute capability: 5.2)
_________________________________________________________________
Layer (type)                 Output Shape              Param #   
=================================================================
dense_1 (Dense)              (None, 50)                2550      
_________________________________________________________________
activation_1 (Activation)    (None, 50)                0         
_________________________________________________________________
dense_2 (Dense)              (None, 150)               7650      
_________________________________________________________________
activation_2 (Activation)    (None, 150)               0         
_________________________________________________________________
dense_3 (Dense)              (None, 150)               22650     
_________________________________________________________________
activation_3 (Activation)    (None, 150)               0         
_________________________________________________________________
dense_4 (Dense)              (None, 150)               22650     
_________________________________________________________________
activation_4 (Activation)    (None, 150)               0         
_________________________________________________________________
dense_5 (Dense)              (None, 150)               22650     
_________________________________________________________________
activation_5 (Activation)    (None, 150)               0         
_________________________________________________________________
dense_6 (Dense)              (None, 150)               22650     
_________________________________________________________________
activation_6 (Activation)    (None, 150)               0         
_________________________________________________________________
dense_7 (Dense)              (None, 150)               22650     
_________________________________________________________________
activation_7 (Activation)    (None, 150)               0         
_________________________________________________________________
dense_8 (Dense)              (None, 3)                 453       
_________________________________________________________________
activation_8 (Activation)    (None, 3)                 0         
=================================================================
Total params: 123,903
Trainable params: 123,903
Non-trainable params: 0
_________________________________________________________________
Train on 17645 samples, validate on 5882 samples
Epoch 1/2000
 - 5s - loss: 1.0805 - acc: 0.4407 - val_loss: 1.0706 - val_acc: 0.4240
Epoch 2/2000
 - 3s - loss: 1.0534 - acc: 0.4792 - val_loss: 1.0321 - val_acc: 0.5255
…
