…
2018-12-24 07:51:15.564887: I tensorflow/core/common_runtime/gpu/gpu_device.cc:1105] Found device 0 with properties: 
name: GeForce GTX 980 major: 5 minor: 2 memoryClockRate(GHz): 1.266
pciBusID: 0000:0f:00.0
totalMemory: 3.95GiB freeMemory: 3.86GiB
2018-12-24 07:51:15.564916: I tensorflow/core/common_runtime/gpu/gpu_device.cc:1195] Creating TensorFlow device (/device:GPU:0) -> (device: 0, name: GeForce GTX 980, pci bus id: 0000:0f:00.0, compute capability: 5.2)
_________________________________________________________________
Layer (type)                 Output Shape              Param #   
=================================================================
dense_1 (Dense)              (None, 50)                2550      
_________________________________________________________________
activation_1 (Activation)    (None, 50)                0         
_________________________________________________________________
dense_2 (Dense)              (None, 150)               7650      
_________________________________________________________________
activation_2 (Activation)    (None, 150)               0         
_________________________________________________________________
dense_3 (Dense)              (None, 150)               22650     
_________________________________________________________________
activation_3 (Activation)    (None, 150)               0         
_________________________________________________________________
dense_4 (Dense)              (None, 150)               22650     
_________________________________________________________________
activation_4 (Activation)    (None, 150)               0         
_________________________________________________________________
dense_5 (Dense)              (None, 3)                 453       
_________________________________________________________________
activation_5 (Activation)    (None, 3)                 0         
=================================================================
Total params: 55,953
Trainable params: 55,953
Non-trainable params: 0
_________________________________________________________________
Train on 17645 samples, validate on 5882 samples
Epoch 1/800
 - 4s - loss: 1.0519 - acc: 0.4776 - val_loss: 1.0195 - val_acc: 0.5202
Epoch 2/800
 - 3s - loss: 0.9851 - acc: 0.5259 - val_loss: 0.9622 - val_acc: 0.5345
…
 - 3s - loss: 0.0011 - acc: 0.9997 - val_loss: 0.3060 - val_acc: 0.9589
Epoch 797/800
 - 3s - loss: 0.0020 - acc: 0.9993 - val_loss: 0.3097 - val_acc: 0.9578
Epoch 798/800
 - 3s - loss: 0.0021 - acc: 0.9993 - val_loss: 0.3072 - val_acc: 0.9585
Epoch 799/800
 - 3s - loss: 0.0017 - acc: 0.9994 - val_loss: 0.3148 - val_acc: 0.9583
Epoch 800/800
 - 3s - loss: 0.0023 - acc: 0.9993 - val_loss: 0.3076 - val_acc: 0.9585
_________________________________________________________________
Layer (type)                 Output Shape              Param #   
=================================================================
dense_6 (Dense)              (None, 50)                2550      
_________________________________________________________________
activation_6 (Activation)    (None, 50)                0         
_________________________________________________________________
dense_7 (Dense)              (None, 150)               7650      
_________________________________________________________________
activation_7 (Activation)    (None, 150)               0         
_________________________________________________________________
dense_8 (Dense)              (None, 150)               22650     
_________________________________________________________________
activation_8 (Activation)    (None, 150)               0         
_________________________________________________________________
dense_9 (Dense)              (None, 150)               22650     
_________________________________________________________________
activation_9 (Activation)    (None, 150)               0         
_________________________________________________________________
dense_10 (Dense)             (None, 150)               22650     
_________________________________________________________________
activation_10 (Activation)   (None, 150)               0         
_________________________________________________________________
dense_11 (Dense)             (None, 3)                 453       
_________________________________________________________________
activation_11 (Activation)   (None, 3)                 0         
=================================================================
Total params: 78,603
Trainable params: 78,603
Non-trainable params: 0
_________________________________________________________________
Train on 17645 samples, validate on 5882 samples
Epoch 1/800
 - 3s - loss: 1.0686 - acc: 0.4315 - val_loss: 1.0451 - val_acc: 0.4903
Epoch 2/800
 - 3s - loss: 1.0035 - acc: 0.5296 - val_loss: 0.9704 - val_acc: 0.5291
…
 - 3s - loss: 0.0012 - acc: 0.9996 - val_loss: 0.2801 - val_acc: 0.9641
Epoch 797/800
 - 3s - loss: 0.0013 - acc: 0.9995 - val_loss: 0.2785 - val_acc: 0.9643
Epoch 798/800
 - 3s - loss: 8.5179e-04 - acc: 0.9997 - val_loss: 0.2795 - val_acc: 0.9641
Epoch 799/800
 - 3s - loss: 0.0010 - acc: 0.9997 - val_loss: 0.2811 - val_acc: 0.9643
Epoch 800/800
 - 3s - loss: 0.0011 - acc: 0.9994 - val_loss: 0.2799 - val_acc: 0.9636
_________________________________________________________________
Layer (type)                 Output Shape              Param #   
=================================================================
dense_12 (Dense)             (None, 50)                2550      
_________________________________________________________________
activation_12 (Activation)   (None, 50)                0         
_________________________________________________________________
dense_13 (Dense)             (None, 150)               7650      
_________________________________________________________________
activation_13 (Activation)   (None, 150)               0         
_________________________________________________________________
dense_14 (Dense)             (None, 150)               22650     
_________________________________________________________________
activation_14 (Activation)   (None, 150)               0         
_________________________________________________________________
dense_15 (Dense)             (None, 150)               22650     
_________________________________________________________________
activation_15 (Activation)   (None, 150)               0         
_________________________________________________________________
dense_16 (Dense)             (None, 150)               22650     
_________________________________________________________________
activation_16 (Activation)   (None, 150)               0         
_________________________________________________________________
dense_17 (Dense)             (None, 150)               22650     
_________________________________________________________________
activation_17 (Activation)   (None, 150)               0         
_________________________________________________________________
dense_18 (Dense)             (None, 3)                 453       
_________________________________________________________________
activation_18 (Activation)   (None, 3)                 0         
=================================================================
Total params: 101,253
Trainable params: 101,253
Non-trainable params: 0
_________________________________________________________________
Train on 17645 samples, validate on 5882 samples
Epoch 1/800
 - 3s - loss: 1.0843 - acc: 0.4044 - val_loss: 1.0715 - val_acc: 0.4388
Epoch 2/800
 - 3s - loss: 1.0506 - acc: 0.5264 - val_loss: 1.0248 - val_acc: 0.5437
…
 - 3s - loss: 8.5623e-04 - acc: 0.9997 - val_loss: 0.2524 - val_acc: 0.9645
Epoch 797/800
 - 3s - loss: 0.0011 - acc: 0.9996 - val_loss: 0.2485 - val_acc: 0.9653
Epoch 798/800
 - 3s - loss: 8.0553e-04 - acc: 0.9997 - val_loss: 0.2477 - val_acc: 0.9657
Epoch 799/800
 - 3s - loss: 0.0013 - acc: 0.9997 - val_loss: 0.2418 - val_acc: 0.9663
Epoch 800/800
 - 3s - loss: 5.5267e-04 - acc: 0.9998 - val_loss: 0.2437 - val_acc: 0.9658
_________________________________________________________________
Layer (type)                 Output Shape              Param #   
=================================================================
dense_19 (Dense)             (None, 50)                2550      
_________________________________________________________________
activation_19 (Activation)   (None, 50)                0         
_________________________________________________________________
dense_20 (Dense)             (None, 150)               7650      
_________________________________________________________________
activation_20 (Activation)   (None, 150)               0         
_________________________________________________________________
dense_21 (Dense)             (None, 150)               22650     
_________________________________________________________________
activation_21 (Activation)   (None, 150)               0         
_________________________________________________________________
dense_22 (Dense)             (None, 150)               22650     
_________________________________________________________________
activation_22 (Activation)   (None, 150)               0         
_________________________________________________________________
dense_23 (Dense)             (None, 150)               22650     
_________________________________________________________________
activation_23 (Activation)   (None, 150)               0         
_________________________________________________________________
dense_24 (Dense)             (None, 150)               22650     
_________________________________________________________________
activation_24 (Activation)   (None, 150)               0         
_________________________________________________________________
dense_25 (Dense)             (None, 150)               22650     
_________________________________________________________________
activation_25 (Activation)   (None, 150)               0         
_________________________________________________________________
dense_26 (Dense)             (None, 3)                 453       
_________________________________________________________________
activation_26 (Activation)   (None, 3)                 0         
=================================================================
Total params: 123,903
Trainable params: 123,903
Non-trainable params: 0
_________________________________________________________________
Train on 17645 samples, validate on 5882 samples
Epoch 1/800
 - 4s - loss: 1.0773 - acc: 0.4128 - val_loss: 1.0633 - val_acc: 0.4043
Epoch 2/800
 - 3s - loss: 1.0326 - acc: 0.4942 - val_loss: 0.9952 - val_acc: 0.5456
…
