…
2018-12-25 21:48:25.283286: I tensorflow/core/common_runtime/gpu/gpu_device.cc:1105] Found device 0 with properties: 
name: GeForce GTX 980 major: 5 minor: 2 memoryClockRate(GHz): 1.2155
pciBusID: 0000:0f:00.0
totalMemory: 3.95GiB freeMemory: 3.86GiB
2018-12-25 21:48:25.283310: I tensorflow/core/common_runtime/gpu/gpu_device.cc:1195] Creating TensorFlow device (/device:GPU:0) -> (device: 0, name: GeForce GTX 980, pci bus id: 0000:0f:00.0, compute capability: 5.2)
_________________________________________________________________
Layer (type)                 Output Shape              Param #   
=================================================================
dense_1 (Dense)              (None, 50)                2550      
_________________________________________________________________
activation_1 (Activation)    (None, 50)                0         
_________________________________________________________________
dense_2 (Dense)              (None, 50)                2550      
_________________________________________________________________
activation_2 (Activation)    (None, 50)                0         
_________________________________________________________________
dense_3 (Dense)              (None, 50)                2550      
_________________________________________________________________
activation_3 (Activation)    (None, 50)                0         
_________________________________________________________________
dense_4 (Dense)              (None, 50)                2550      
_________________________________________________________________
activation_4 (Activation)    (None, 50)                0         
_________________________________________________________________
dense_5 (Dense)              (None, 3)                 153       
_________________________________________________________________
activation_5 (Activation)    (None, 3)                 0         
=================================================================
Total params: 10,353
Trainable params: 10,353
Non-trainable params: 0
_________________________________________________________________
Train on 17645 samples, validate on 5882 samples
Epoch 1/800
 - 4s - loss: 1.0725 - acc: 0.4348 - val_loss: 1.0526 - val_acc: 0.4740
Epoch 2/800
 - 3s - loss: 1.0203 - acc: 0.5020 - val_loss: 0.9895 - val_acc: 0.5111
…
 - 3s - loss: 0.0033 - acc: 0.9990 - val_loss: 0.3424 - val_acc: 0.9577
Epoch 797/800
 - 3s - loss: 0.0028 - acc: 0.9990 - val_loss: 0.3410 - val_acc: 0.9589
Epoch 798/800
 - 3s - loss: 0.0037 - acc: 0.9988 - val_loss: 0.3423 - val_acc: 0.9587
Epoch 799/800
 - 3s - loss: 0.0027 - acc: 0.9991 - val_loss: 0.3445 - val_acc: 0.9582
Epoch 800/800
 - 3s - loss: 0.0026 - acc: 0.9991 - val_loss: 0.3490 - val_acc: 0.9568
_________________________________________________________________
Layer (type)                 Output Shape              Param #   
=================================================================
dense_6 (Dense)              (None, 50)                2550      
_________________________________________________________________
activation_6 (Activation)    (None, 50)                0         
_________________________________________________________________
dense_7 (Dense)              (None, 75)                3825      
_________________________________________________________________
activation_7 (Activation)    (None, 75)                0         
_________________________________________________________________
dense_8 (Dense)              (None, 75)                5700      
_________________________________________________________________
activation_8 (Activation)    (None, 75)                0         
_________________________________________________________________
dense_9 (Dense)              (None, 75)                5700      
_________________________________________________________________
activation_9 (Activation)    (None, 75)                0         
_________________________________________________________________
dense_10 (Dense)             (None, 3)                 228       
_________________________________________________________________
activation_10 (Activation)   (None, 3)                 0         
=================================================================
Total params: 18,003
Trainable params: 18,003
Non-trainable params: 0
_________________________________________________________________
Train on 17645 samples, validate on 5882 samples
Epoch 1/800
 - 3s - loss: 1.0569 - acc: 0.4373 - val_loss: 1.0326 - val_acc: 0.5199
Epoch 2/800
 - 3s - loss: 1.0015 - acc: 0.5216 - val_loss: 0.9775 - val_acc: 0.5223
…
 - 3s - loss: 0.0020 - acc: 0.9993 - val_loss: 0.2745 - val_acc: 0.9614
Epoch 797/800
 - 3s - loss: 0.0016 - acc: 0.9996 - val_loss: 0.2797 - val_acc: 0.9619
Epoch 798/800
 - 3s - loss: 0.0022 - acc: 0.9992 - val_loss: 0.3280 - val_acc: 0.9521
Epoch 799/800
 - 3s - loss: 0.0017 - acc: 0.9996 - val_loss: 0.2816 - val_acc: 0.9619
Epoch 800/800
 - 3s - loss: 0.0017 - acc: 0.9996 - val_loss: 0.2824 - val_acc: 0.9621
_________________________________________________________________
Layer (type)                 Output Shape              Param #   
=================================================================
dense_11 (Dense)             (None, 50)                2550      
_________________________________________________________________
activation_11 (Activation)   (None, 50)                0         
_________________________________________________________________
dense_12 (Dense)             (None, 100)               5100      
_________________________________________________________________
activation_12 (Activation)   (None, 100)               0         
_________________________________________________________________
dense_13 (Dense)             (None, 100)               10100     
_________________________________________________________________
activation_13 (Activation)   (None, 100)               0         
_________________________________________________________________
dense_14 (Dense)             (None, 100)               10100     
_________________________________________________________________
activation_14 (Activation)   (None, 100)               0         
_________________________________________________________________
dense_15 (Dense)             (None, 3)                 303       
_________________________________________________________________
activation_15 (Activation)   (None, 3)                 0         
=================================================================
Total params: 28,153
Trainable params: 28,153
Non-trainable params: 0
_________________________________________________________________
Train on 17645 samples, validate on 5882 samples
Epoch 1/800
 - 3s - loss: 1.0773 - acc: 0.4138 - val_loss: 1.0610 - val_acc: 0.4328
Epoch 2/800
 - 3s - loss: 1.0347 - acc: 0.5217 - val_loss: 1.0060 - val_acc: 0.5473
…
 - 3s - loss: 0.0020 - acc: 0.9994 - val_loss: 0.3100 - val_acc: 0.9607
Epoch 797/800
 - 3s - loss: 0.0018 - acc: 0.9995 - val_loss: 0.3285 - val_acc: 0.9566
Epoch 798/800
 - 3s - loss: 0.0046 - acc: 0.9986 - val_loss: 0.3092 - val_acc: 0.9609
Epoch 799/800
 - 3s - loss: 0.0017 - acc: 0.9995 - val_loss: 0.3151 - val_acc: 0.9607
Epoch 800/800
 - 3s - loss: 0.0020 - acc: 0.9994 - val_loss: 0.3122 - val_acc: 0.9611
_________________________________________________________________
Layer (type)                 Output Shape              Param #   
=================================================================
dense_16 (Dense)             (None, 50)                2550      
_________________________________________________________________
activation_16 (Activation)   (None, 50)                0         
_________________________________________________________________
dense_17 (Dense)             (None, 125)               6375      
_________________________________________________________________
activation_17 (Activation)   (None, 125)               0         
_________________________________________________________________
dense_18 (Dense)             (None, 125)               15750     
_________________________________________________________________
activation_18 (Activation)   (None, 125)               0         
_________________________________________________________________
dense_19 (Dense)             (None, 125)               15750     
_________________________________________________________________
activation_19 (Activation)   (None, 125)               0         
_________________________________________________________________
dense_20 (Dense)             (None, 3)                 378       
_________________________________________________________________
activation_20 (Activation)   (None, 3)                 0         
=================================================================
Total params: 40,803
Trainable params: 40,803
Non-trainable params: 0
_________________________________________________________________
Train on 17645 samples, validate on 5882 samples
Epoch 1/800
 - 3s - loss: 1.0766 - acc: 0.4035 - val_loss: 1.0615 - val_acc: 0.4031
Epoch 2/800
 - 3s - loss: 1.0445 - acc: 0.4212 - val_loss: 1.0272 - val_acc: 0.4913
…
