…
2018-12-25 11:55:44.843547: I tensorflow/core/common_runtime/gpu/gpu_device.cc:1105] Found device 0 with properties: 
name: GeForce GTX 980 major: 5 minor: 2 memoryClockRate(GHz): 1.2155
pciBusID: 0000:0f:00.0
totalMemory: 3.95GiB freeMemory: 3.86GiB
2018-12-25 11:55:44.843574: I tensorflow/core/common_runtime/gpu/gpu_device.cc:1195] Creating TensorFlow device (/device:GPU:0) -> (device: 0, name: GeForce GTX 980, pci bus id: 0000:0f:00.0, compute capability: 5.2)
_________________________________________________________________
Layer (type)                 Output Shape              Param #   
=================================================================
dense_1 (Dense)              (None, 50)                2550      
_________________________________________________________________
activation_1 (Activation)    (None, 50)                0         
_________________________________________________________________
dense_2 (Dense)              (None, 150)               7650      
_________________________________________________________________
activation_2 (Activation)    (None, 150)               0         
_________________________________________________________________
dense_3 (Dense)              (None, 150)               22650     
_________________________________________________________________
activation_3 (Activation)    (None, 150)               0         
_________________________________________________________________
dense_4 (Dense)              (None, 150)               22650     
_________________________________________________________________
activation_4 (Activation)    (None, 150)               0         
_________________________________________________________________
dense_5 (Dense)              (None, 3)                 453       
_________________________________________________________________
activation_5 (Activation)    (None, 3)                 0         
=================================================================
Total params: 55,953
Trainable params: 55,953
Non-trainable params: 0
_________________________________________________________________
Train on 17645 samples, validate on 5882 samples
Epoch 1/800
 - 4s - loss: 1.0687 - acc: 0.4042 - val_loss: 1.0425 - val_acc: 0.4087
Epoch 2/800
 - 3s - loss: 1.0086 - acc: 0.5076 - val_loss: 0.9844 - val_acc: 0.5224
…
 - 3s - loss: 0.0016 - acc: 0.9996 - val_loss: 0.3249 - val_acc: 0.9594
Epoch 797/800
 - 3s - loss: 0.0020 - acc: 0.9993 - val_loss: 0.3223 - val_acc: 0.9606
Epoch 798/800
 - 3s - loss: 0.0018 - acc: 0.9994 - val_loss: 0.3157 - val_acc: 0.9595
Epoch 799/800
 - 3s - loss: 0.0029 - acc: 0.9992 - val_loss: 0.3203 - val_acc: 0.9614
Epoch 800/800
 - 3s - loss: 0.0018 - acc: 0.9994 - val_loss: 0.3166 - val_acc: 0.9606
_________________________________________________________________
Layer (type)                 Output Shape              Param #   
=================================================================
dense_6 (Dense)              (None, 50)                2550      
_________________________________________________________________
activation_6 (Activation)    (None, 50)                0         
_________________________________________________________________
dense_7 (Dense)              (None, 150)               7650      
_________________________________________________________________
activation_7 (Activation)    (None, 150)               0         
_________________________________________________________________
dense_8 (Dense)              (None, 150)               22650     
_________________________________________________________________
activation_8 (Activation)    (None, 150)               0         
_________________________________________________________________
dense_9 (Dense)              (None, 150)               22650     
_________________________________________________________________
activation_9 (Activation)    (None, 150)               0         
_________________________________________________________________
dense_10 (Dense)             (None, 150)               22650     
_________________________________________________________________
activation_10 (Activation)   (None, 150)               0         
_________________________________________________________________
dense_11 (Dense)             (None, 3)                 453       
_________________________________________________________________
activation_11 (Activation)   (None, 3)                 0         
=================================================================
Total params: 78,603
Trainable params: 78,603
Non-trainable params: 0
_________________________________________________________________
Train on 17645 samples, validate on 5882 samples
Epoch 1/800
 - 3s - loss: 1.0760 - acc: 0.4069 - val_loss: 1.0597 - val_acc: 0.4041
Epoch 2/800
 - 3s - loss: 1.0317 - acc: 0.4773 - val_loss: 1.0020 - val_acc: 0.5122
…
 - 3s - loss: 0.0011 - acc: 0.9997 - val_loss: 0.2996 - val_acc: 0.9599
Epoch 797/800
 - 3s - loss: 0.0013 - acc: 0.9993 - val_loss: 0.2980 - val_acc: 0.9597
Epoch 798/800
 - 3s - loss: 9.5804e-04 - acc: 0.9997 - val_loss: 0.3007 - val_acc: 0.9602
Epoch 799/800
 - 3s - loss: 0.0013 - acc: 0.9997 - val_loss: 0.2999 - val_acc: 0.9609
Epoch 800/800
 - 3s - loss: 0.0011 - acc: 0.9996 - val_loss: 0.2917 - val_acc: 0.9599
_________________________________________________________________
Layer (type)                 Output Shape              Param #   
=================================================================
dense_12 (Dense)             (None, 50)                2550      
_________________________________________________________________
activation_12 (Activation)   (None, 50)                0         
_________________________________________________________________
dense_13 (Dense)             (None, 150)               7650      
_________________________________________________________________
activation_13 (Activation)   (None, 150)               0         
_________________________________________________________________
dense_14 (Dense)             (None, 150)               22650     
_________________________________________________________________
activation_14 (Activation)   (None, 150)               0         
_________________________________________________________________
dense_15 (Dense)             (None, 150)               22650     
_________________________________________________________________
activation_15 (Activation)   (None, 150)               0         
_________________________________________________________________
dense_16 (Dense)             (None, 150)               22650     
_________________________________________________________________
activation_16 (Activation)   (None, 150)               0         
_________________________________________________________________
dense_17 (Dense)             (None, 150)               22650     
_________________________________________________________________
activation_17 (Activation)   (None, 150)               0         
_________________________________________________________________
dense_18 (Dense)             (None, 3)                 453       
_________________________________________________________________
activation_18 (Activation)   (None, 3)                 0         
=================================================================
Total params: 101,253
Trainable params: 101,253
Non-trainable params: 0
_________________________________________________________________
Train on 17645 samples, validate on 5882 samples
Epoch 1/800
 - 3s - loss: 1.0829 - acc: 0.4118 - val_loss: 1.0732 - val_acc: 0.4031
Epoch 2/800
 - 3s - loss: 1.0582 - acc: 0.4118 - val_loss: 1.0444 - val_acc: 0.4548
…
 - 3s - loss: 6.4362e-04 - acc: 0.9998 - val_loss: 0.3370 - val_acc: 0.9580
Epoch 797/800
 - 3s - loss: 7.2645e-04 - acc: 0.9997 - val_loss: 0.3392 - val_acc: 0.9589
Epoch 798/800
 - 3s - loss: 0.0014 - acc: 0.9994 - val_loss: 0.3345 - val_acc: 0.9587
Epoch 799/800
 - 3s - loss: 9.9816e-04 - acc: 0.9997 - val_loss: 0.3400 - val_acc: 0.9582
Epoch 800/800
 - 3s - loss: 0.0012 - acc: 0.9995 - val_loss: 0.3406 - val_acc: 0.9589
_________________________________________________________________
Layer (type)                 Output Shape              Param #   
=================================================================
dense_19 (Dense)             (None, 50)                2550      
_________________________________________________________________
activation_19 (Activation)   (None, 50)                0         
_________________________________________________________________
dense_20 (Dense)             (None, 150)               7650      
_________________________________________________________________
activation_20 (Activation)   (None, 150)               0         
_________________________________________________________________
dense_21 (Dense)             (None, 150)               22650     
_________________________________________________________________
activation_21 (Activation)   (None, 150)               0         
_________________________________________________________________
dense_22 (Dense)             (None, 150)               22650     
_________________________________________________________________
activation_22 (Activation)   (None, 150)               0         
_________________________________________________________________
dense_23 (Dense)             (None, 150)               22650     
_________________________________________________________________
activation_23 (Activation)   (None, 150)               0         
_________________________________________________________________
dense_24 (Dense)             (None, 150)               22650     
_________________________________________________________________
activation_24 (Activation)   (None, 150)               0         
_________________________________________________________________
dense_25 (Dense)             (None, 150)               22650     
_________________________________________________________________
activation_25 (Activation)   (None, 150)               0         
_________________________________________________________________
dense_26 (Dense)             (None, 3)                 453       
_________________________________________________________________
activation_26 (Activation)   (None, 3)                 0         
=================================================================
Total params: 123,903
Trainable params: 123,903
Non-trainable params: 0
_________________________________________________________________
Train on 17645 samples, validate on 5882 samples
Epoch 1/800
 - 4s - loss: 1.0818 - acc: 0.4007 - val_loss: 1.0733 - val_acc: 0.4031
Epoch 2/800
 - 3s - loss: 1.0625 - acc: 0.4100 - val_loss: 1.0528 - val_acc: 0.4031
…
