…
2018-12-23 17:27:56.047805: I tensorflow/core/common_runtime/gpu/gpu_device.cc:1105] Found device 0 with properties: 
name: GeForce GTX 980 major: 5 minor: 2 memoryClockRate(GHz): 1.266
pciBusID: 0000:0f:00.0
totalMemory: 3.95GiB freeMemory: 3.86GiB
2018-12-23 17:27:56.047828: I tensorflow/core/common_runtime/gpu/gpu_device.cc:1195] Creating TensorFlow device (/device:GPU:0) -> (device: 0, name: GeForce GTX 980, pci bus id: 0000:0f:00.0, compute capability: 5.2)
_________________________________________________________________
Layer (type)                 Output Shape              Param #   
=================================================================
dense_1 (Dense)              (None, 50)                2550      
_________________________________________________________________
activation_1 (Activation)    (None, 50)                0         
_________________________________________________________________
dense_2 (Dense)              (None, 50)                2550      
_________________________________________________________________
activation_2 (Activation)    (None, 50)                0         
_________________________________________________________________
dense_3 (Dense)              (None, 50)                2550      
_________________________________________________________________
activation_3 (Activation)    (None, 50)                0         
_________________________________________________________________
dense_4 (Dense)              (None, 50)                2550      
_________________________________________________________________
activation_4 (Activation)    (None, 50)                0         
_________________________________________________________________
dense_5 (Dense)              (None, 50)                2550      
_________________________________________________________________
activation_5 (Activation)    (None, 50)                0         
_________________________________________________________________
dense_6 (Dense)              (None, 50)                2550      
_________________________________________________________________
activation_6 (Activation)    (None, 50)                0         
_________________________________________________________________
dense_7 (Dense)              (None, 50)                2550      
_________________________________________________________________
activation_7 (Activation)    (None, 50)                0         
_________________________________________________________________
dense_8 (Dense)              (None, 3)                 153       
_________________________________________________________________
activation_8 (Activation)    (None, 3)                 0         
=================================================================
Total params: 18,003
Trainable params: 18,003
Non-trainable params: 0
_________________________________________________________________
Train on 17645 samples, validate on 5882 samples
Epoch 1/2000
 - 9s - loss: 1.0854 - acc: 0.4042 - val_loss: 1.0765 - val_acc: 0.4031
Epoch 2/2000
 - 3s - loss: 1.0661 - acc: 0.4100 - val_loss: 1.0573 - val_acc: 0.4031
…
 - 3s - loss: 7.9838e-06 - acc: 1.0000 - val_loss: 0.4089 - val_acc: 0.9604
Epoch 1997/2000
 - 3s - loss: 7.9877e-06 - acc: 1.0000 - val_loss: 0.4089 - val_acc: 0.9607
Epoch 1998/2000
 - 3s - loss: 7.9612e-06 - acc: 1.0000 - val_loss: 0.4091 - val_acc: 0.9606
Epoch 1999/2000
 - 3s - loss: 7.8182e-06 - acc: 1.0000 - val_loss: 0.4090 - val_acc: 0.9606
Epoch 2000/2000
 - 3s - loss: 8.0055e-06 - acc: 1.0000 - val_loss: 0.4090 - val_acc: 0.9606
_________________________________________________________________
Layer (type)                 Output Shape              Param #   
=================================================================
dense_9 (Dense)              (None, 50)                2550      
_________________________________________________________________
activation_9 (Activation)    (None, 50)                0         
_________________________________________________________________
dense_10 (Dense)             (None, 75)                3825      
_________________________________________________________________
activation_10 (Activation)   (None, 75)                0         
_________________________________________________________________
dense_11 (Dense)             (None, 75)                5700      
_________________________________________________________________
activation_11 (Activation)   (None, 75)                0         
_________________________________________________________________
dense_12 (Dense)             (None, 75)                5700      
_________________________________________________________________
activation_12 (Activation)   (None, 75)                0         
_________________________________________________________________
dense_13 (Dense)             (None, 75)                5700      
_________________________________________________________________
activation_13 (Activation)   (None, 75)                0         
_________________________________________________________________
dense_14 (Dense)             (None, 75)                5700      
_________________________________________________________________
activation_14 (Activation)   (None, 75)                0         
_________________________________________________________________
dense_15 (Dense)             (None, 75)                5700      
_________________________________________________________________
activation_15 (Activation)   (None, 75)                0         
_________________________________________________________________
dense_16 (Dense)             (None, 3)                 228       
_________________________________________________________________
activation_16 (Activation)   (None, 3)                 0         
=================================================================
Total params: 35,103
Trainable params: 35,103
Non-trainable params: 0
_________________________________________________________________
Train on 17645 samples, validate on 5882 samples
Epoch 1/2000
 - 4s - loss: 1.0808 - acc: 0.4090 - val_loss: 1.0703 - val_acc: 0.4031
Epoch 2/2000
 - 3s - loss: 1.0541 - acc: 0.4100 - val_loss: 1.0357 - val_acc: 0.4031
…
 - 3s - loss: 5.3151e-04 - acc: 0.9998 - val_loss: 0.2860 - val_acc: 0.9668
Epoch 1997/2000
 - 3s - loss: 1.5303e-04 - acc: 1.0000 - val_loss: 0.2889 - val_acc: 0.9672
Epoch 1998/2000
 - 3s - loss: 1.2630e-04 - acc: 1.0000 - val_loss: 0.2864 - val_acc: 0.9670
Epoch 1999/2000
 - 3s - loss: 1.2217e-04 - acc: 1.0000 - val_loss: 0.2890 - val_acc: 0.9670
Epoch 2000/2000
 - 3s - loss: 1.3043e-04 - acc: 1.0000 - val_loss: 0.2857 - val_acc: 0.9674
_________________________________________________________________
Layer (type)                 Output Shape              Param #   
=================================================================
dense_17 (Dense)             (None, 50)                2550      
_________________________________________________________________
activation_17 (Activation)   (None, 50)                0         
_________________________________________________________________
dense_18 (Dense)             (None, 100)               5100      
_________________________________________________________________
activation_18 (Activation)   (None, 100)               0         
_________________________________________________________________
dense_19 (Dense)             (None, 100)               10100     
_________________________________________________________________
activation_19 (Activation)   (None, 100)               0         
_________________________________________________________________
dense_20 (Dense)             (None, 100)               10100     
_________________________________________________________________
activation_20 (Activation)   (None, 100)               0         
_________________________________________________________________
dense_21 (Dense)             (None, 100)               10100     
_________________________________________________________________
activation_21 (Activation)   (None, 100)               0         
_________________________________________________________________
dense_22 (Dense)             (None, 100)               10100     
_________________________________________________________________
activation_22 (Activation)   (None, 100)               0         
_________________________________________________________________
dense_23 (Dense)             (None, 100)               10100     
_________________________________________________________________
activation_23 (Activation)   (None, 100)               0         
_________________________________________________________________
dense_24 (Dense)             (None, 3)                 303       
_________________________________________________________________
activation_24 (Activation)   (None, 3)                 0         
=================================================================
Total params: 58,453
Trainable params: 58,453
Non-trainable params: 0
_________________________________________________________________
Train on 17645 samples, validate on 5882 samples
Epoch 1/2000
 - 4s - loss: 1.0808 - acc: 0.4101 - val_loss: 1.0705 - val_acc: 0.4031
Epoch 2/2000
 - 3s - loss: 1.0543 - acc: 0.4100 - val_loss: 1.0351 - val_acc: 0.4031
…
 - 3s - loss: 1.2042e-04 - acc: 0.9999 - val_loss: 0.2985 - val_acc: 0.9650
Epoch 1997/2000
 - 3s - loss: 1.0706e-04 - acc: 0.9999 - val_loss: 0.2996 - val_acc: 0.9638
Epoch 1998/2000
 - 3s - loss: 1.8312e-04 - acc: 0.9998 - val_loss: 0.2970 - val_acc: 0.9655
Epoch 1999/2000
 - 3s - loss: 1.7711e-04 - acc: 0.9999 - val_loss: 0.2977 - val_acc: 0.9648
Epoch 2000/2000
 - 3s - loss: 1.1169e-04 - acc: 0.9999 - val_loss: 0.2981 - val_acc: 0.9651
_________________________________________________________________
Layer (type)                 Output Shape              Param #   
=================================================================
dense_25 (Dense)             (None, 50)                2550      
_________________________________________________________________
activation_25 (Activation)   (None, 50)                0         
_________________________________________________________________
dense_26 (Dense)             (None, 125)               6375      
_________________________________________________________________
activation_26 (Activation)   (None, 125)               0         
_________________________________________________________________
dense_27 (Dense)             (None, 125)               15750     
_________________________________________________________________
activation_27 (Activation)   (None, 125)               0         
_________________________________________________________________
dense_28 (Dense)             (None, 125)               15750     
_________________________________________________________________
activation_28 (Activation)   (None, 125)               0         
_________________________________________________________________
dense_29 (Dense)             (None, 125)               15750     
_________________________________________________________________
activation_29 (Activation)   (None, 125)               0         
_________________________________________________________________
dense_30 (Dense)             (None, 125)               15750     
_________________________________________________________________
activation_30 (Activation)   (None, 125)               0         
_________________________________________________________________
dense_31 (Dense)             (None, 125)               15750     
_________________________________________________________________
activation_31 (Activation)   (None, 125)               0         
_________________________________________________________________
dense_32 (Dense)             (None, 3)                 378       
_________________________________________________________________
activation_32 (Activation)   (None, 3)                 0         
=================================================================
Total params: 88,053
Trainable params: 88,053
Non-trainable params: 0
_________________________________________________________________
Train on 17645 samples, validate on 5882 samples
Epoch 1/2000
 - 4s - loss: 1.0777 - acc: 0.4100 - val_loss: 1.0689 - val_acc: 0.4031
Epoch 2/2000
 - 3s - loss: 1.0527 - acc: 0.4100 - val_loss: 1.0364 - val_acc: 0.4031
…
