_________________________________________________________________
Layer (type)                 Output Shape              Param #   
=================================================================
dense_1 (Dense)              (None, 50)                2550      
_________________________________________________________________
activation_1 (Activation)    (None, 50)                0         
_________________________________________________________________
dense_2 (Dense)              (None, 50)                2550      
_________________________________________________________________
activation_2 (Activation)    (None, 50)                0         
_________________________________________________________________
dense_3 (Dense)              (None, 2)                 102       
_________________________________________________________________
activation_3 (Activation)    (None, 2)                 0         
=================================================================
Total params: 5,202
Trainable params: 5,202
Non-trainable params: 0
_________________________________________________________________
Train on 10440 samples, validate on 3481 samples
Epoch 1/200
 - 3s - loss: 0.6781 - acc: 0.5815 - val_loss: 0.6684 - val_acc: 0.6001
Epoch 2/200
 - 1s - loss: 0.6732 - acc: 0.5815 - val_loss: 0.6645 - val_acc: 0.6001
…
