_________________________________________________________________
Layer (type)                 Output Shape              Param #   
=================================================================
dense_1 (Dense)              (None, 50)                2550      
_________________________________________________________________
activation_1 (Activation)    (None, 50)                0         
_________________________________________________________________
dense_2 (Dense)              (None, 50)                2550      
_________________________________________________________________
activation_2 (Activation)    (None, 50)                0         
_________________________________________________________________
dense_3 (Dense)              (None, 3)                 153       
_________________________________________________________________
activation_3 (Activation)    (None, 3)                 0         
=================================================================
Total params: 5,253
Trainable params: 5,253
Non-trainable params: 0
_________________________________________________________________
Train on 17645 samples, validate on 5882 samples
Epoch 1/200
 - 4s - loss: 1.0488 - acc: 0.4298 - val_loss: 1.0269 - val_acc: 0.4611
Epoch 2/200
 - 3s - loss: 1.0029 - acc: 0.5217 - val_loss: 0.9919 - val_acc: 0.5111
…
