…
2018-12-14 14:16:45.506666: I tensorflow/core/common_runtime/gpu/gpu_device.cc:1105] Found device 0 with properties: 
name: GeForce GTX 980 major: 5 minor: 2 memoryClockRate(GHz): 1.2155
pciBusID: 0000:0f:00.0
totalMemory: 3.95GiB freeMemory: 3.86GiB
2018-12-14 14:16:45.506691: I tensorflow/core/common_runtime/gpu/gpu_device.cc:1195] Creating TensorFlow device (/device:GPU:0) -> (device: 0, name: GeForce GTX 980, pci bus id: 0000:0f:00.0, compute capability: 5.2)
_________________________________________________________________
Layer (type)                 Output Shape              Param #   
=================================================================
dense_1 (Dense)              (None, 50)                2550      
_________________________________________________________________
activation_1 (Activation)    (None, 50)                0         
_________________________________________________________________
dense_2 (Dense)              (None, 50)                2550      
_________________________________________________________________
activation_2 (Activation)    (None, 50)                0         
_________________________________________________________________
dense_3 (Dense)              (None, 50)                2550      
_________________________________________________________________
activation_3 (Activation)    (None, 50)                0         
_________________________________________________________________
dense_4 (Dense)              (None, 50)                2550      
_________________________________________________________________
activation_4 (Activation)    (None, 50)                0         
_________________________________________________________________
dense_5 (Dense)              (None, 3)                 153       
_________________________________________________________________
activation_5 (Activation)    (None, 3)                 0         
=================================================================
Total params: 10,353
Trainable params: 10,353
Non-trainable params: 0
_________________________________________________________________
Train on 17645 samples, validate on 5882 samples
Epoch 1/400
 - 4s - loss: 1.0817 - acc: 0.4805 - val_loss: 1.0651 - val_acc: 0.5148
Epoch 2/400
 - 3s - loss: 1.0399 - acc: 0.5251 - val_loss: 1.0106 - val_acc: 0.5304
…
