_________________________________________________________________
Layer (type)                 Output Shape              Param #   
=================================================================
dense_1 (Dense)              (None, 50)                2550      
_________________________________________________________________
activation_1 (Activation)    (None, 50)                0         
_________________________________________________________________
dense_2 (Dense)              (None, 50)                2550      
_________________________________________________________________
activation_2 (Activation)    (None, 50)                0         
_________________________________________________________________
dense_3 (Dense)              (None, 2)                 102       
_________________________________________________________________
activation_3 (Activation)    (None, 2)                 0         
=================================================================
Total params: 5,202
Trainable params: 5,202
Non-trainable params: 0
_________________________________________________________________
Train on 11525 samples, validate on 3842 samples
Epoch 1/200
 - 3s - loss: 0.6532 - acc: 0.6171 - val_loss: 0.6273 - val_acc: 0.6189
Epoch 2/200
 - 2s - loss: 0.5961 - acc: 0.6394 - val_loss: 0.5819 - val_acc: 0.6543
…
