_________________________________________________________________
Layer (type)                 Output Shape              Param #   
=================================================================
dense_1 (Dense)              (None, 50)                2550      
_________________________________________________________________
activation_1 (Activation)    (None, 50)                0         
_________________________________________________________________
dropout_1 (Dropout)          (None, 50)                0         
_________________________________________________________________
dense_2 (Dense)              (None, 50)                2550      
_________________________________________________________________
activation_2 (Activation)    (None, 50)                0         
_________________________________________________________________
dropout_2 (Dropout)          (None, 50)                0         
_________________________________________________________________
dense_3 (Dense)              (None, 3)                 153       
_________________________________________________________________
activation_3 (Activation)    (None, 3)                 0         
=================================================================
Total params: 5,253
Trainable params: 5,253
Non-trainable params: 0
_________________________________________________________________
Train on 17645 samples, validate on 5882 samples
Epoch 1/200
 - 4s - loss: 1.0819 - acc: 0.3804 - val_loss: 1.0614 - val_acc: 0.4031
Epoch 2/200
 - 3s - loss: 1.0563 - acc: 0.4199 - val_loss: 1.0368 - val_acc: 0.4048
…
