_________________________________________________________________
Layer (type)                 Output Shape              Param #   
=================================================================
dense_1 (Dense)              (None, 50)                2550      
_________________________________________________________________
activation_1 (Activation)    (None, 50)                0         
_________________________________________________________________
dropout_1 (Dropout)          (None, 50)                0         
_________________________________________________________________
dense_2 (Dense)              (None, 50)                2550      
_________________________________________________________________
activation_2 (Activation)    (None, 50)                0         
_________________________________________________________________
dropout_2 (Dropout)          (None, 50)                0         
_________________________________________________________________
dense_3 (Dense)              (None, 2)                 102       
_________________________________________________________________
activation_3 (Activation)    (None, 2)                 0         
=================================================================
Total params: 5,202
Trainable params: 5,202
Non-trainable params: 0
_________________________________________________________________
Train on 10440 samples, validate on 3481 samples
Epoch 1/200
 - 3s - loss: 0.6872 - acc: 0.5444 - val_loss: 0.6729 - val_acc: 0.6001
Epoch 2/200
 - 2s - loss: 0.6804 - acc: 0.5662 - val_loss: 0.6674 - val_acc: 0.6001
…
