…
2018-12-07 00:13:11.985181: I tensorflow/core/common_runtime/gpu/gpu_device.cc:1105] Found device 0 with properties: 
name: GeForce GTX 980 major: 5 minor: 2 memoryClockRate(GHz): 1.2155
pciBusID: 0000:0f:00.0
totalMemory: 3.95GiB freeMemory: 3.86GiB
2018-12-07 00:13:11.985217: I tensorflow/core/common_runtime/gpu/gpu_device.cc:1195] Creating TensorFlow device (/device:GPU:0) -> (device: 0, name: GeForce GTX 980, pci bus id: 0000:0f:00.0, compute capability: 5.2)
_________________________________________________________________
Layer (type)                 Output Shape              Param #   
=================================================================
dense_1 (Dense)              (None, 50)                2550      
_________________________________________________________________
activation_1 (Activation)    (None, 50)                0         
_________________________________________________________________
dense_2 (Dense)              (None, 50)                2550      
_________________________________________________________________
activation_2 (Activation)    (None, 50)                0         
_________________________________________________________________
dense_3 (Dense)              (None, 50)                2550      
_________________________________________________________________
activation_3 (Activation)    (None, 50)                0         
_________________________________________________________________
dense_4 (Dense)              (None, 2)                 102       
_________________________________________________________________
activation_4 (Activation)    (None, 2)                 0         
=================================================================
Total params: 7,752
Trainable params: 7,752
Non-trainable params: 0
_________________________________________________________________
Train on 10440 samples, validate on 3481 samples
Epoch 1/400
 - 3s - loss: 0.6789 - acc: 0.5771 - val_loss: 0.6668 - val_acc: 0.6001
Epoch 2/400
 - 2s - loss: 0.6711 - acc: 0.5815 - val_loss: 0.6624 - val_acc: 0.6001
…
