_________________________________________________________________
Layer (type)                 Output Shape              Param #   
=================================================================
dense_1 (Dense)              (None, 50)                2550      
_________________________________________________________________
activation_1 (Activation)    (None, 50)                0         
_________________________________________________________________
dropout_1 (Dropout)          (None, 50)                0         
_________________________________________________________________
dense_2 (Dense)              (None, 50)                2550      
_________________________________________________________________
batch_normalization_1 (Batch (None, 50)                200       
_________________________________________________________________
activation_2 (Activation)    (None, 50)                0         
_________________________________________________________________
dropout_2 (Dropout)          (None, 50)                0         
_________________________________________________________________
dense_3 (Dense)              (None, 50)                2550      
_________________________________________________________________
batch_normalization_2 (Batch (None, 50)                200       
_________________________________________________________________
activation_3 (Activation)    (None, 50)                0         
_________________________________________________________________
dropout_3 (Dropout)          (None, 50)                0         
_________________________________________________________________
dense_4 (Dense)              (None, 50)                2550      
_________________________________________________________________
batch_normalization_3 (Batch (None, 50)                200       
_________________________________________________________________
activation_4 (Activation)    (None, 50)                0         
_________________________________________________________________
dropout_4 (Dropout)          (None, 50)                0         
_________________________________________________________________
dense_5 (Dense)              (None, 2)                 102       
_________________________________________________________________
activation_5 (Activation)    (None, 2)                 0         
=================================================================
Total params: 10,902
Trainable params: 10,602
Non-trainable params: 300
_________________________________________________________________
Train on 10440 samples, validate on 3481 samples
Epoch 1/2000
 - 5s - loss: 0.7140 - acc: 0.5464 - val_loss: 0.6688 - val_acc: 0.5915
Epoch 2/2000
 - 4s - loss: 0.6850 - acc: 0.5711 - val_loss: 0.6580 - val_acc: 0.6070
…
