…
2018-12-15 11:46:23.003055: E tensorflow/stream_executor/cuda/cuda_blas.cc:444] failed to create cublas handle: CUBLAS_STATUS_NOT_INITIALIZED
2018-12-15 11:46:23.012031: E tensorflow/stream_executor/cuda/cuda_blas.cc:444] failed to create cublas handle: CUBLAS_STATUS_NOT_INITIALIZED
2018-12-15 11:46:23.012061: W tensorflow/stream_executor/stream.cc:1901] attempting to perform BLAS operation using StreamExecutor without BLAS support
Using TensorFlow backend.
_________________________________________________________________
Layer (type)                 Output Shape              Param #   
=================================================================
dense_1 (Dense)              (None, 50)                2550      
_________________________________________________________________
activation_1 (Activation)    (None, 50)                0         
_________________________________________________________________
dense_2 (Dense)              (None, 50)                2550      
_________________________________________________________________
batch_normalization_1 (Batch (None, 50)                200       
_________________________________________________________________
activation_2 (Activation)    (None, 50)                0         
_________________________________________________________________
dense_3 (Dense)              (None, 50)                2550      
_________________________________________________________________
batch_normalization_2 (Batch (None, 50)                200       
_________________________________________________________________
activation_3 (Activation)    (None, 50)                0         
_________________________________________________________________
dense_4 (Dense)              (None, 50)                2550      
_________________________________________________________________
batch_normalization_3 (Batch (None, 50)                200       
_________________________________________________________________
activation_4 (Activation)    (None, 50)                0         
_________________________________________________________________
dense_5 (Dense)              (None, 2)                 102       
_________________________________________________________________
activation_5 (Activation)    (None, 2)                 0         
=================================================================
Total params: 10,902
Trainable params: 10,602
Non-trainable params: 300
_________________________________________________________________
Train on 10440 samples, validate on 3481 samples
Epoch 1/800
Traceback (most recent call last):
  File "/home/chikako_takasaki/.pyenv/versions/3.6.0/lib/python3.6/site-packages/tensorflow/python/client/session.py", line 1350, in _do_call
…
