_________________________________________________________________
Layer (type)                 Output Shape              Param #   
=================================================================
dense_1 (Dense)              (None, 50)                2550      
_________________________________________________________________
activation_1 (Activation)    (None, 50)                0         
_________________________________________________________________
dense_2 (Dense)              (None, 100)               5100      
_________________________________________________________________
activation_2 (Activation)    (None, 100)               0         
_________________________________________________________________
dense_3 (Dense)              (None, 100)               10100     
_________________________________________________________________
activation_3 (Activation)    (None, 100)               0         
_________________________________________________________________
dense_4 (Dense)              (None, 100)               10100     
_________________________________________________________________
activation_4 (Activation)    (None, 100)               0         
_________________________________________________________________
dense_5 (Dense)              (None, 100)               10100     
_________________________________________________________________
activation_5 (Activation)    (None, 100)               0         
_________________________________________________________________
dense_6 (Dense)              (None, 100)               10100     
_________________________________________________________________
activation_6 (Activation)    (None, 100)               0         
_________________________________________________________________
dense_7 (Dense)              (None, 2)                 202       
_________________________________________________________________
activation_7 (Activation)    (None, 2)                 0         
=================================================================
Total params: 48,252
Trainable params: 48,252
Non-trainable params: 0
_________________________________________________________________
Train on 10440 samples, validate on 3481 samples
Epoch 1/2000
 - 3s - loss: 0.6791 - acc: 0.5815 - val_loss: 0.6691 - val_acc: 0.6001
Epoch 2/2000
 - 2s - loss: 0.6744 - acc: 0.5815 - val_loss: 0.6659 - val_acc: 0.6001
…
