_________________________________________________________________
Layer (type)                 Output Shape              Param #   
=================================================================
dense_1 (Dense)              (None, 50)                2550      
_________________________________________________________________
activation_1 (Activation)    (None, 50)                0         
_________________________________________________________________
dropout_1 (Dropout)          (None, 50)                0         
_________________________________________________________________
dense_2 (Dense)              (None, 50)                2550      
_________________________________________________________________
activation_2 (Activation)    (None, 50)                0         
_________________________________________________________________
dropout_2 (Dropout)          (None, 50)                0         
_________________________________________________________________
dense_3 (Dense)              (None, 50)                2550      
_________________________________________________________________
activation_3 (Activation)    (None, 50)                0         
_________________________________________________________________
dropout_3 (Dropout)          (None, 50)                0         
_________________________________________________________________
dense_4 (Dense)              (None, 50)                2550      
_________________________________________________________________
activation_4 (Activation)    (None, 50)                0         
_________________________________________________________________
dropout_4 (Dropout)          (None, 50)                0         
_________________________________________________________________
dense_5 (Dense)              (None, 2)                 102       
_________________________________________________________________
activation_5 (Activation)    (None, 2)                 0         
=================================================================
Total params: 10,302
Trainable params: 10,302
Non-trainable params: 0
_________________________________________________________________
Train on 11525 samples, validate on 3842 samples
Epoch 1/800
 - 4s - loss: 0.6820 - acc: 0.5790 - val_loss: 0.6665 - val_acc: 0.6189
Epoch 2/800
 - 2s - loss: 0.6570 - acc: 0.6272 - val_loss: 0.6479 - val_acc: 0.6189
…
