_________________________________________________________________
Layer (type)                 Output Shape              Param #   
=================================================================
dense_1 (Dense)              (None, 50)                2550      
_________________________________________________________________
activation_1 (Activation)    (None, 50)                0         
_________________________________________________________________
dense_2 (Dense)              (None, 150)               7650      
_________________________________________________________________
activation_2 (Activation)    (None, 150)               0         
_________________________________________________________________
dense_3 (Dense)              (None, 150)               22650     
_________________________________________________________________
activation_3 (Activation)    (None, 150)               0         
_________________________________________________________________
dense_4 (Dense)              (None, 150)               22650     
_________________________________________________________________
activation_4 (Activation)    (None, 150)               0         
_________________________________________________________________
dense_5 (Dense)              (None, 150)               22650     
_________________________________________________________________
activation_5 (Activation)    (None, 150)               0         
_________________________________________________________________
dense_6 (Dense)              (None, 2)                 302       
_________________________________________________________________
activation_6 (Activation)    (None, 2)                 0         
=================================================================
Total params: 78,452
Trainable params: 78,452
Non-trainable params: 0
_________________________________________________________________
Train on 11525 samples, validate on 3842 samples
Epoch 1/2000
 - 3s - loss: 0.6456 - acc: 0.6272 - val_loss: 0.6202 - val_acc: 0.6189
Epoch 2/2000
 - 2s - loss: 0.5795 - acc: 0.6398 - val_loss: 0.5609 - val_acc: 0.7124
…
