_________________________________________________________________
Layer (type)                 Output Shape              Param #   
=================================================================
dense_1 (Dense)              (None, 500)               250500    
_________________________________________________________________
activation_1 (Activation)    (None, 500)               0         
_________________________________________________________________
dropout_1 (Dropout)          (None, 500)               0         
_________________________________________________________________
dense_2 (Dense)              (None, 500)               250500    
_________________________________________________________________
activation_2 (Activation)    (None, 500)               0         
_________________________________________________________________
dense_3 (Dense)              (None, 500)               250500    
_________________________________________________________________
activation_3 (Activation)    (None, 500)               0         
_________________________________________________________________
dense_4 (Dense)              (None, 500)               250500    
_________________________________________________________________
activation_4 (Activation)    (None, 500)               0         
_________________________________________________________________
dense_5 (Dense)              (None, 3)                 1503      
_________________________________________________________________
activation_5 (Activation)    (None, 3)                 0         
=================================================================
Total params: 1,003,503
Trainable params: 1,003,503
Non-trainable params: 0
_________________________________________________________________
Train on 11916 samples, validate on 3972 samples
Epoch 1/1600
 - 2s - loss: 0.9457 - acc: 0.5319 - val_loss: 0.9099 - val_acc: 0.5342
Epoch 2/1600
 - 1s - loss: 0.8666 - acc: 0.5888 - val_loss: 0.9173 - val_acc: 0.5274
…
