_________________________________________________________________
Layer (type)                 Output Shape              Param #   
=================================================================
dense_1 (Dense)              (None, 50)                2550      
_________________________________________________________________
activation_1 (Activation)    (None, 50)                0         
_________________________________________________________________
dense_2 (Dense)              (None, 100)               5100      
_________________________________________________________________
activation_2 (Activation)    (None, 100)               0         
_________________________________________________________________
dense_3 (Dense)              (None, 100)               10100     
_________________________________________________________________
activation_3 (Activation)    (None, 100)               0         
_________________________________________________________________
dense_4 (Dense)              (None, 100)               10100     
_________________________________________________________________
activation_4 (Activation)    (None, 100)               0         
_________________________________________________________________
dense_5 (Dense)              (None, 3)                 303       
_________________________________________________________________
activation_5 (Activation)    (None, 3)                 0         
=================================================================
Total params: 28,153
Trainable params: 28,153
Non-trainable params: 0
_________________________________________________________________
Train on 18580 samples, validate on 7960 samples
Epoch 1/1600
 - 5s - loss: 1.0463 - acc: 0.4494 - val_loss: 1.0050 - val_acc: 0.5334
Epoch 2/1600
 - 3s - loss: 0.9608 - acc: 0.5341 - val_loss: 0.9530 - val_acc: 0.5443
…
