_________________________________________________________________
Layer (type)                 Output Shape              Param #   
=================================================================
dense_1 (Dense)              (None, 50)                2550      
_________________________________________________________________
activation_1 (Activation)    (None, 50)                0         
_________________________________________________________________
dense_2 (Dense)              (None, 125)               6375      
_________________________________________________________________
activation_2 (Activation)    (None, 125)               0         
_________________________________________________________________
dense_3 (Dense)              (None, 125)               15750     
_________________________________________________________________
activation_3 (Activation)    (None, 125)               0         
_________________________________________________________________
dense_4 (Dense)              (None, 125)               15750     
_________________________________________________________________
activation_4 (Activation)    (None, 125)               0         
_________________________________________________________________
dense_5 (Dense)              (None, 3)                 378       
_________________________________________________________________
activation_5 (Activation)    (None, 3)                 0         
=================================================================
Total params: 40,803
Trainable params: 40,803
Non-trainable params: 0
_________________________________________________________________
Train on 18580 samples, validate on 7960 samples
Epoch 1/1600
 - 5s - loss: 1.0676 - acc: 0.4227 - val_loss: 1.0454 - val_acc: 0.4234
Epoch 2/1600
 - 3s - loss: 1.0167 - acc: 0.4510 - val_loss: 0.9964 - val_acc: 0.5188
…
