_________________________________________________________________
Layer (type)                 Output Shape              Param #   
=================================================================
dense_1 (Dense)              (None, 50)                2550      
_________________________________________________________________
activation_1 (Activation)    (None, 50)                0         
_________________________________________________________________
dropout_1 (Dropout)          (None, 50)                0         
_________________________________________________________________
dense_2 (Dense)              (None, 75)                3825      
_________________________________________________________________
batch_normalization_1 (Batch (None, 75)                300       
_________________________________________________________________
activation_2 (Activation)    (None, 75)                0         
_________________________________________________________________
dropout_2 (Dropout)          (None, 75)                0         
_________________________________________________________________
dense_3 (Dense)              (None, 75)                5700      
_________________________________________________________________
batch_normalization_2 (Batch (None, 75)                300       
_________________________________________________________________
activation_3 (Activation)    (None, 75)                0         
_________________________________________________________________
dropout_3 (Dropout)          (None, 75)                0         
_________________________________________________________________
dense_4 (Dense)              (None, 75)                5700      
_________________________________________________________________
batch_normalization_3 (Batch (None, 75)                300       
_________________________________________________________________
activation_4 (Activation)    (None, 75)                0         
_________________________________________________________________
dropout_4 (Dropout)          (None, 75)                0         
_________________________________________________________________
dense_5 (Dense)              (None, 75)                5700      
_________________________________________________________________
batch_normalization_4 (Batch (None, 75)                300       
_________________________________________________________________
activation_5 (Activation)    (None, 75)                0         
_________________________________________________________________
dropout_5 (Dropout)          (None, 75)                0         
_________________________________________________________________
dense_6 (Dense)              (None, 75)                5700      
_________________________________________________________________
batch_normalization_5 (Batch (None, 75)                300       
_________________________________________________________________
activation_6 (Activation)    (None, 75)                0         
_________________________________________________________________
dropout_6 (Dropout)          (None, 75)                0         
_________________________________________________________________
dense_7 (Dense)              (None, 3)                 228       
_________________________________________________________________
activation_7 (Activation)    (None, 3)                 0         
=================================================================
Total params: 30,903
Trainable params: 30,153
Non-trainable params: 750
_________________________________________________________________
Train on 18580 samples, validate on 7960 samples
Epoch 1/1600
 - 9s - loss: 1.1294 - acc: 0.3670 - val_loss: 1.0839 - val_acc: 0.4226
Epoch 2/1600
 - 7s - loss: 1.0890 - acc: 0.3951 - val_loss: 1.0820 - val_acc: 0.4235
…
