…
2019-02-03 12:30:13.031448: I tensorflow/core/common_runtime/gpu/gpu_device.cc:1105] Found device 0 with properties: 
name: GeForce GTX 980 major: 5 minor: 2 memoryClockRate(GHz): 1.266
pciBusID: 0000:0f:00.0
totalMemory: 3.95GiB freeMemory: 3.86GiB
2019-02-03 12:30:13.031492: I tensorflow/core/common_runtime/gpu/gpu_device.cc:1195] Creating TensorFlow device (/device:GPU:0) -> (device: 0, name: GeForce GTX 980, pci bus id: 0000:0f:00.0, compute capability: 5.2)
_________________________________________________________________
Layer (type)                 Output Shape              Param #   
=================================================================
dense_1 (Dense)              (None, 50)                2550      
_________________________________________________________________
activation_1 (Activation)    (None, 50)                0         
_________________________________________________________________
dropout_1 (Dropout)          (None, 50)                0         
_________________________________________________________________
dense_2 (Dense)              (None, 50)                2550      
_________________________________________________________________
batch_normalization_1 (Batch (None, 50)                200       
_________________________________________________________________
activation_2 (Activation)    (None, 50)                0         
_________________________________________________________________
dropout_2 (Dropout)          (None, 50)                0         
_________________________________________________________________
dense_3 (Dense)              (None, 50)                2550      
_________________________________________________________________
batch_normalization_2 (Batch (None, 50)                200       
_________________________________________________________________
activation_3 (Activation)    (None, 50)                0         
_________________________________________________________________
dropout_3 (Dropout)          (None, 50)                0         
_________________________________________________________________
dense_4 (Dense)              (None, 50)                2550      
_________________________________________________________________
batch_normalization_3 (Batch (None, 50)                200       
_________________________________________________________________
activation_4 (Activation)    (None, 50)                0         
_________________________________________________________________
dropout_4 (Dropout)          (None, 50)                0         
_________________________________________________________________
dense_5 (Dense)              (None, 3)                 153       
_________________________________________________________________
activation_5 (Activation)    (None, 3)                 0         
=================================================================
Total params: 10,953
Trainable params: 10,653
Non-trainable params: 300
_________________________________________________________________
Train on 12380 samples, validate on 7960 samples
Epoch 1/1600
 - 12s - loss: 1.0458 - acc: 0.4522 - val_loss: 0.9627 - val_acc: 0.5387
Epoch 2/1600
 - 4s - loss: 0.9532 - acc: 0.5287 - val_loss: 0.9143 - val_acc: 0.5727
…
