…
2019-02-04 15:58:37.082528: I tensorflow/core/common_runtime/gpu/gpu_device.cc:1105] Found device 0 with properties: 
name: GeForce GTX 980 major: 5 minor: 2 memoryClockRate(GHz): 1.266
pciBusID: 0000:0f:00.0
totalMemory: 3.95GiB freeMemory: 3.86GiB
2019-02-04 15:58:37.082568: I tensorflow/core/common_runtime/gpu/gpu_device.cc:1195] Creating TensorFlow device (/device:GPU:0) -> (device: 0, name: GeForce GTX 980, pci bus id: 0000:0f:00.0, compute capability: 5.2)
_________________________________________________________________
Layer (type)                 Output Shape              Param #   
=================================================================
dense_1 (Dense)              (None, 50)                2550      
_________________________________________________________________
activation_1 (Activation)    (None, 50)                0         
_________________________________________________________________
dropout_1 (Dropout)          (None, 50)                0         
_________________________________________________________________
dense_2 (Dense)              (None, 75)                3825      
_________________________________________________________________
batch_normalization_1 (Batch (None, 75)                300       
_________________________________________________________________
activation_2 (Activation)    (None, 75)                0         
_________________________________________________________________
dropout_2 (Dropout)          (None, 75)                0         
_________________________________________________________________
dense_3 (Dense)              (None, 75)                5700      
_________________________________________________________________
batch_normalization_2 (Batch (None, 75)                300       
_________________________________________________________________
activation_3 (Activation)    (None, 75)                0         
_________________________________________________________________
dropout_3 (Dropout)          (None, 75)                0         
_________________________________________________________________
dense_4 (Dense)              (None, 75)                5700      
_________________________________________________________________
batch_normalization_3 (Batch (None, 75)                300       
_________________________________________________________________
activation_4 (Activation)    (None, 75)                0         
_________________________________________________________________
dropout_4 (Dropout)          (None, 75)                0         
_________________________________________________________________
dense_5 (Dense)              (None, 75)                5700      
_________________________________________________________________
batch_normalization_4 (Batch (None, 75)                300       
_________________________________________________________________
activation_5 (Activation)    (None, 75)                0         
_________________________________________________________________
dropout_5 (Dropout)          (None, 75)                0         
_________________________________________________________________
dense_6 (Dense)              (None, 75)                5700      
_________________________________________________________________
batch_normalization_5 (Batch (None, 75)                300       
_________________________________________________________________
activation_6 (Activation)    (None, 75)                0         
_________________________________________________________________
dropout_6 (Dropout)          (None, 75)                0         
_________________________________________________________________
dense_7 (Dense)              (None, 3)                 228       
_________________________________________________________________
activation_7 (Activation)    (None, 3)                 0         
=================================================================
Total params: 30,903
Trainable params: 30,153
Non-trainable params: 750
_________________________________________________________________
Train on 18580 samples, validate on 7960 samples
Epoch 1/1600
 - 11s - loss: 1.1200 - acc: 0.3684 - val_loss: 1.0714 - val_acc: 0.4225
Epoch 2/1600
 - 9s - loss: 1.0839 - acc: 0.4076 - val_loss: 1.0610 - val_acc: 0.4198
…
