_________________________________________________________________
Layer (type)                 Output Shape              Param #   
=================================================================
dense_1 (Dense)              (None, 50)                2550      
_________________________________________________________________
activation_1 (Activation)    (None, 50)                0         
_________________________________________________________________
dense_2 (Dense)              (None, 50)                2550      
_________________________________________________________________
activation_2 (Activation)    (None, 50)                0         
_________________________________________________________________
dense_3 (Dense)              (None, 50)                2550      
_________________________________________________________________
activation_3 (Activation)    (None, 50)                0         
_________________________________________________________________
dense_4 (Dense)              (None, 50)                2550      
_________________________________________________________________
activation_4 (Activation)    (None, 50)                0         
_________________________________________________________________
dense_5 (Dense)              (None, 50)                2550      
_________________________________________________________________
activation_5 (Activation)    (None, 50)                0         
_________________________________________________________________
dense_6 (Dense)              (None, 50)                2550      
_________________________________________________________________
activation_6 (Activation)    (None, 50)                0         
_________________________________________________________________
dense_7 (Dense)              (None, 50)                2550      
_________________________________________________________________
activation_7 (Activation)    (None, 50)                0         
_________________________________________________________________
dense_8 (Dense)              (None, 3)                 153       
_________________________________________________________________
activation_8 (Activation)    (None, 3)                 0         
=================================================================
Total params: 18,003
Trainable params: 18,003
Non-trainable params: 0
_________________________________________________________________
Train on 18580 samples, validate on 7960 samples
Epoch 1/1600
 - 5s - loss: 1.0706 - acc: 0.4419 - val_loss: 1.0504 - val_acc: 0.4491
Epoch 2/1600
 - 4s - loss: 0.9994 - acc: 0.5199 - val_loss: 0.9530 - val_acc: 0.5475
…
