_________________________________________________________________
Layer (type)                 Output Shape              Param #   
=================================================================
dense_1 (Dense)              (None, 50)                2550      
_________________________________________________________________
activation_1 (Activation)    (None, 50)                0         
_________________________________________________________________
dropout_1 (Dropout)          (None, 50)                0         
_________________________________________________________________
dense_2 (Dense)              (None, 100)               5100      
_________________________________________________________________
activation_2 (Activation)    (None, 100)               0         
_________________________________________________________________
dropout_2 (Dropout)          (None, 100)               0         
_________________________________________________________________
dense_3 (Dense)              (None, 100)               10100     
_________________________________________________________________
activation_3 (Activation)    (None, 100)               0         
_________________________________________________________________
dropout_3 (Dropout)          (None, 100)               0         
_________________________________________________________________
dense_4 (Dense)              (None, 100)               10100     
_________________________________________________________________
activation_4 (Activation)    (None, 100)               0         
_________________________________________________________________
dropout_4 (Dropout)          (None, 100)               0         
_________________________________________________________________
dense_5 (Dense)              (None, 100)               10100     
_________________________________________________________________
activation_5 (Activation)    (None, 100)               0         
_________________________________________________________________
dropout_5 (Dropout)          (None, 100)               0         
_________________________________________________________________
dense_6 (Dense)              (None, 100)               10100     
_________________________________________________________________
activation_6 (Activation)    (None, 100)               0         
_________________________________________________________________
dropout_6 (Dropout)          (None, 100)               0         
_________________________________________________________________
dense_7 (Dense)              (None, 100)               10100     
_________________________________________________________________
activation_7 (Activation)    (None, 100)               0         
_________________________________________________________________
dropout_7 (Dropout)          (None, 100)               0         
_________________________________________________________________
dense_8 (Dense)              (None, 3)                 303       
_________________________________________________________________
activation_8 (Activation)    (None, 3)                 0         
=================================================================
Total params: 58,453
Trainable params: 58,453
Non-trainable params: 0
_________________________________________________________________
Train on 18580 samples, validate on 7960 samples
Epoch 1/1600
 - 6s - loss: 1.0819 - acc: 0.4123 - val_loss: 1.0711 - val_acc: 0.4234
Epoch 2/1600
 - 5s - loss: 1.0647 - acc: 0.4230 - val_loss: 1.0557 - val_acc: 0.4234
…
