_________________________________________________________________
Layer (type)                 Output Shape              Param #   
=================================================================
dense_1 (Dense)              (None, 50)                2550      
_________________________________________________________________
activation_1 (Activation)    (None, 50)                0         
_________________________________________________________________
dropout_1 (Dropout)          (None, 50)                0         
_________________________________________________________________
dense_2 (Dense)              (None, 100)               5100      
_________________________________________________________________
batch_normalization_1 (Batch (None, 100)               400       
_________________________________________________________________
activation_2 (Activation)    (None, 100)               0         
_________________________________________________________________
dropout_2 (Dropout)          (None, 100)               0         
_________________________________________________________________
dense_3 (Dense)              (None, 100)               10100     
_________________________________________________________________
batch_normalization_2 (Batch (None, 100)               400       
_________________________________________________________________
activation_3 (Activation)    (None, 100)               0         
_________________________________________________________________
dropout_3 (Dropout)          (None, 100)               0         
_________________________________________________________________
dense_4 (Dense)              (None, 100)               10100     
_________________________________________________________________
batch_normalization_3 (Batch (None, 100)               400       
_________________________________________________________________
activation_4 (Activation)    (None, 100)               0         
_________________________________________________________________
dropout_4 (Dropout)          (None, 100)               0         
_________________________________________________________________
dense_5 (Dense)              (None, 100)               10100     
_________________________________________________________________
batch_normalization_4 (Batch (None, 100)               400       
_________________________________________________________________
activation_5 (Activation)    (None, 100)               0         
_________________________________________________________________
dropout_5 (Dropout)          (None, 100)               0         
_________________________________________________________________
dense_6 (Dense)              (None, 100)               10100     
_________________________________________________________________
batch_normalization_5 (Batch (None, 100)               400       
_________________________________________________________________
activation_6 (Activation)    (None, 100)               0         
_________________________________________________________________
dropout_6 (Dropout)          (None, 100)               0         
_________________________________________________________________
dense_7 (Dense)              (None, 100)               10100     
_________________________________________________________________
batch_normalization_6 (Batch (None, 100)               400       
_________________________________________________________________
activation_7 (Activation)    (None, 100)               0         
_________________________________________________________________
dropout_7 (Dropout)          (None, 100)               0         
_________________________________________________________________
dense_8 (Dense)              (None, 3)                 303       
_________________________________________________________________
activation_8 (Activation)    (None, 3)                 0         
=================================================================
Total params: 60,853
Trainable params: 59,653
Non-trainable params: 1,200
_________________________________________________________________
Train on 18580 samples, validate on 7960 samples
Epoch 1/1600
 - 12s - loss: 1.0652 - acc: 0.4248 - val_loss: 1.0006 - val_acc: 0.5220
Epoch 2/1600
 - 10s - loss: 0.9764 - acc: 0.5112 - val_loss: 0.9220 - val_acc: 0.5464
…
