*********************************************
_________________________________________________________________
Layer (type)                 Output Shape              Param #   
=================================================================
time_distributed_1 (TimeDist (None, 10, 50)            2550      
_________________________________________________________________
time_distributed_2 (TimeDist (None, 10, 50)            2550      
_________________________________________________________________
lstm_1 (LSTM)                (None, 10, 50)            20200     
_________________________________________________________________
lstm_2 (LSTM)                (None, 50)                20200     
_________________________________________________________________
dense_3 (Dense)              (None, 100)               5100      
_________________________________________________________________
activation_1 (Activation)    (None, 100)               0         
=================================================================
Total params: 50,600
Trainable params: 50,600
Non-trainable params: 0
_________________________________________________________________
Train on 71123 samples, validate on 23708 samples
Epoch 1/1000
 - 129s - loss: 4.5950 - acc: 0.0171 - val_loss: 4.5850 - val_acc: 0.0235
Epoch 2/1000
 - 128s - loss: 4.5701 - acc: 0.0268 - val_loss: 4.5525 - val_acc: 0.0267
…
