*********************************************
_________________________________________________________________
Layer (type)                 Output Shape              Param #   
=================================================================
time_distributed_1 (TimeDist (None, 10, 50)            2550      
_________________________________________________________________
time_distributed_2 (TimeDist (None, 10, 50)            2550      
_________________________________________________________________
lstm_1 (LSTM)                (None, 10, 50)            20200     
_________________________________________________________________
lstm_2 (LSTM)                (None, 50)                20200     
_________________________________________________________________
dense_3 (Dense)              (None, 100)               5100      
_________________________________________________________________
activation_1 (Activation)    (None, 100)               0         
=================================================================
Total params: 50,600
Trainable params: 50,600
Non-trainable params: 0
_________________________________________________________________
Train on 71123 samples, validate on 23708 samples
Epoch 1/500
 - 127s - loss: 4.5984 - acc: 0.0158 - val_loss: 4.5907 - val_acc: 0.0227
Epoch 2/500
 - 121s - loss: 4.5795 - acc: 0.0243 - val_loss: 4.5666 - val_acc: 0.0256
…
