_________________________________________________________________
Layer (type)                 Output Shape              Param #   
=================================================================
reshape_1 (Reshape)          (None, 20, 50)            0         
_________________________________________________________________
time_distributed_1 (TimeDist (None, 20, 100)           5100      
_________________________________________________________________
time_distributed_2 (TimeDist (None, 20, 100)           10100     
_________________________________________________________________
lstm_1 (LSTM)                (None, 100)               80400     
_________________________________________________________________
dense_3 (Dense)              (None, 3)                 303       
_________________________________________________________________
activation_1 (Activation)    (None, 3)                 0         
=================================================================
Total params: 95,903
Trainable params: 95,903
Non-trainable params: 0
_________________________________________________________________
Train on 1992 samples, validate on 665 samples
Epoch 1/3000
 - 5s - loss: 1.0259 - acc: 0.4890 - val_loss: 0.9564 - val_acc: 0.5293
Epoch 2/3000
 - 3s - loss: 0.9562 - acc: 0.5336 - val_loss: 0.9179 - val_acc: 0.5308
…
