_________________________________________________________________
Layer (type)                 Output Shape              Param #   
=================================================================
reshape_1 (Reshape)          (None, 20, 50)            0         
_________________________________________________________________
time_distributed_1 (TimeDist (None, 20, 50)            2550      
_________________________________________________________________
time_distributed_2 (TimeDist (None, 20, 50)            2550      
_________________________________________________________________
lstm_1 (LSTM)                (None, 50)                20200     
_________________________________________________________________
dense_3 (Dense)              (None, 3)                 153       
_________________________________________________________________
activation_1 (Activation)    (None, 3)                 0         
=================================================================
Total params: 25,453
Trainable params: 25,453
Non-trainable params: 0
_________________________________________________________________
Train on 1992 samples, validate on 665 samples
Epoch 1/3000
 - 5s - loss: 1.0398 - acc: 0.4473 - val_loss: 0.9819 - val_acc: 0.5128
Epoch 2/3000
 - 3s - loss: 0.9853 - acc: 0.5080 - val_loss: 0.9413 - val_acc: 0.5248
…
