_________________________________________________________________
Layer (type)                 Output Shape              Param #   
=================================================================
dense_1 (Dense)              (None, 500)               250500    
_________________________________________________________________
activation_1 (Activation)    (None, 500)               0         
_________________________________________________________________
dropout_1 (Dropout)          (None, 500)               0         
_________________________________________________________________
dense_2 (Dense)              (None, 500)               250500    
_________________________________________________________________
batch_normalization_1 (Batch (None, 500)               2000      
_________________________________________________________________
activation_2 (Activation)    (None, 500)               0         
_________________________________________________________________
dropout_2 (Dropout)          (None, 500)               0         
_________________________________________________________________
dense_3 (Dense)              (None, 500)               250500    
_________________________________________________________________
batch_normalization_2 (Batch (None, 500)               2000      
_________________________________________________________________
activation_3 (Activation)    (None, 500)               0         
_________________________________________________________________
dropout_3 (Dropout)          (None, 500)               0         
_________________________________________________________________
dense_4 (Dense)              (None, 500)               250500    
_________________________________________________________________
batch_normalization_3 (Batch (None, 500)               2000      
_________________________________________________________________
activation_4 (Activation)    (None, 500)               0         
_________________________________________________________________
dropout_4 (Dropout)          (None, 500)               0         
_________________________________________________________________
dense_5 (Dense)              (None, 100)               50100     
_________________________________________________________________
activation_5 (Activation)    (None, 100)               0         
=================================================================
Total params: 1,058,100
Trainable params: 1,055,100
Non-trainable params: 3,000
_________________________________________________________________
Train on 65942 samples, validate on 21981 samples
Epoch 1/500
22s - loss: 4.4416 - acc: 0.0461 - top_k_categorical_accuracy: 0.1609 - val_loss: 4.0098 - val_acc: 0.0940 - val_top_k_categorical_accuracy: 0.2751
…
