_________________________________________________________________
Layer (type)                 Output Shape              Param #   
=================================================================
reshape_1 (Reshape)          (None, 30, 50)            0         
_________________________________________________________________
time_distributed_1 (TimeDist (None, 30, 50)            2550      
_________________________________________________________________
time_distributed_2 (TimeDist (None, 30, 50)            2550      
_________________________________________________________________
lstm_1 (LSTM)                (None, 50)                20200     
_________________________________________________________________
dense_3 (Dense)              (None, 3)                 153       
_________________________________________________________________
activation_1 (Activation)    (None, 3)                 0         
=================================================================
Total params: 25,453
Trainable params: 25,453
Non-trainable params: 0
_________________________________________________________________
Train on 1998 samples, validate on 667 samples
Epoch 1/3000
 - 6s - loss: 1.0608 - acc: 0.4209 - val_loss: 0.9901 - val_acc: 0.5292
Epoch 2/3000
 - 4s - loss: 0.9840 - acc: 0.5155 - val_loss: 0.9465 - val_acc: 0.5607
…
