_________________________________________________________________
Layer (type)                 Output Shape              Param #   
=================================================================
reshape_1 (Reshape)          (None, 30, 50)            0         
_________________________________________________________________
time_distributed_1 (TimeDist (None, 30, 100)           5100      
_________________________________________________________________
time_distributed_2 (TimeDist (None, 30, 100)           10100     
_________________________________________________________________
lstm_1 (LSTM)                (None, 100)               80400     
_________________________________________________________________
dense_3 (Dense)              (None, 3)                 303       
_________________________________________________________________
activation_1 (Activation)    (None, 3)                 0         
=================================================================
Total params: 95,903
Trainable params: 95,903
Non-trainable params: 0
_________________________________________________________________
Train on 1998 samples, validate on 667 samples
Epoch 1/3000
 - 6s - loss: 1.0348 - acc: 0.4384 - val_loss: 0.9836 - val_acc: 0.4798
Epoch 2/3000
 - 5s - loss: 0.9848 - acc: 0.4910 - val_loss: 0.9499 - val_acc: 0.5157
…
