_________________________________________________________________
Layer (type)                 Output Shape              Param #   
=================================================================
reshape_1 (Reshape)          (None, 10, 50)            0         
_________________________________________________________________
time_distributed_1 (TimeDist (None, 10, 50)            2550      
_________________________________________________________________
time_distributed_2 (TimeDist (None, 10, 50)            2550      
_________________________________________________________________
lstm_1 (LSTM)                (None, 50)                20200     
_________________________________________________________________
dense_3 (Dense)              (None, 3)                 153       
_________________________________________________________________
activation_1 (Activation)    (None, 3)                 0         
=================================================================
Total params: 25,453
Trainable params: 25,453
Non-trainable params: 0
_________________________________________________________________
Train on 11916 samples, validate on 3972 samples
Epoch 1/3000
 - 4s - loss: 1.0014 - acc: 0.4784 - val_loss: 0.9273 - val_acc: 0.5423
Epoch 2/3000
 - 4s - loss: 0.9411 - acc: 0.5264 - val_loss: 0.8954 - val_acc: 0.5544
…
