train reverse aug done
509.6060311794281
train rotate5 aug done
506.7253131866455
train rotate10 aug done
506.3181083202362
train preprocessing done
871.7050757408142
test reverse aug done
168.4404640197754
test rotate5 aug done
167.7778525352478
test rotate10 aug done
167.8984386920929
test preprocessing done
290.1787612438202
_________________________________________________________________
Layer (type)                 Output Shape              Param #   
=================================================================
reshape_1 (Reshape)          (None, 10, 50)            0         
_________________________________________________________________
time_distributed_1 (TimeDist (None, 10, 50)            2550      
_________________________________________________________________
time_distributed_2 (TimeDist (None, 10, 50)            2550      
_________________________________________________________________
lstm_1 (LSTM)                (None, 50)                20200     
_________________________________________________________________
dense_3 (Dense)              (None, 3)                 153       
_________________________________________________________________
activation_1 (Activation)    (None, 3)                 0         
=================================================================
Total params: 25,453
Trainable params: 25,453
Non-trainable params: 0
_________________________________________________________________
Train on 7944 samples, validate on 2648 samples
Epoch 1/3000
 - 8s - loss: 1.0012 - acc: 0.4962 - val_loss: 0.9301 - val_acc: 0.5423
Epoch 2/3000
 - 7s - loss: 0.9282 - acc: 0.5486 - val_loss: 0.8832 - val_acc: 0.5808
…
