train reverse aug done
517.8651900291443
train rotate5 aug done
515.1034197807312
train rotate10 aug done
514.9003415107727
train preprocessing done
889.0196979045868
test reverse aug done
171.20392990112305
test rotate5 aug done
170.62020063400269
test rotate10 aug done
170.754643201828
test preprocessing done
295.3474941253662
_________________________________________________________________
Layer (type)                 Output Shape              Param #   
=================================================================
reshape_1 (Reshape)          (None, 10, 50)            0         
_________________________________________________________________
time_distributed_1 (TimeDist (None, 10, 50)            2550      
_________________________________________________________________
time_distributed_2 (TimeDist (None, 10, 50)            2550      
_________________________________________________________________
lstm_1 (LSTM)                (None, 50)                20200     
_________________________________________________________________
dense_3 (Dense)              (None, 3)                 153       
_________________________________________________________________
activation_1 (Activation)    (None, 3)                 0         
=================================================================
Total params: 25,453
Trainable params: 25,453
Non-trainable params: 0
_________________________________________________________________
Train on 7944 samples, validate on 2648 samples
Epoch 1/3000
 - 9s - loss: 0.9967 - acc: 0.4824 - val_loss: 0.9234 - val_acc: 0.5306
Epoch 2/3000
 - 7s - loss: 0.9351 - acc: 0.5286 - val_loss: 0.8844 - val_acc: 0.5619
…
