_________________________________________________________________
Layer (type)                 Output Shape              Param #   
=================================================================
reshape_1 (Reshape)          (None, 10, 50)            0         
_________________________________________________________________
time_distributed_1 (TimeDist (None, 10, 50)            2550      
_________________________________________________________________
time_distributed_2 (TimeDist (None, 10, 50)            2550      
_________________________________________________________________
lstm_1 (LSTM)                (None, 50)                20200     
_________________________________________________________________
dense_3 (Dense)              (None, 3)                 153       
_________________________________________________________________
activation_1 (Activation)    (None, 3)                 0         
=================================================================
Total params: 25,453
Trainable params: 25,453
Non-trainable params: 0
_________________________________________________________________
Train on 119160 samples, validate on 39720 samples
Epoch 1/3000
 - 126s - loss: 0.9430 - acc: 0.5265 - val_loss: 0.8515 - val_acc: 0.5842
Epoch 2/3000
 - 118s - loss: 0.8431 - acc: 0.6021 - val_loss: 0.7796 - val_acc: 0.6482
…
