_________________________________________________________________
Layer (type)                 Output Shape              Param #   
=================================================================
reshape_1 (Reshape)          (None, 10, 50)            0         
_________________________________________________________________
time_distributed_1 (TimeDist (None, 10, 100)           5100      
_________________________________________________________________
time_distributed_2 (TimeDist (None, 10, 100)           10100     
_________________________________________________________________
lstm_1 (LSTM)                (None, 100)               80400     
_________________________________________________________________
dense_3 (Dense)              (None, 3)                 303       
_________________________________________________________________
activation_1 (Activation)    (None, 3)                 0         
=================================================================
Total params: 95,903
Trainable params: 95,903
Non-trainable params: 0
_________________________________________________________________
Train on 1986 samples, validate on 662 samples
Epoch 1/3000
 - 3s - loss: 1.0078 - acc: 0.4783 - val_loss: 0.9269 - val_acc: 0.5574
Epoch 2/3000
 - 2s - loss: 0.9275 - acc: 0.5433 - val_loss: 0.8930 - val_acc: 0.5574
…
