_________________________________________________________________
Layer (type)                 Output Shape              Param #   
=================================================================
reshape_1 (Reshape)          (None, 10, 50)            0         
_________________________________________________________________
time_distributed_1 (TimeDist (None, 10, 50)            2550      
_________________________________________________________________
time_distributed_2 (TimeDist (None, 10, 50)            2550      
_________________________________________________________________
lstm_1 (LSTM)                (None, 50)                20200     
_________________________________________________________________
dense_3 (Dense)              (None, 3)                 153       
_________________________________________________________________
activation_1 (Activation)    (None, 3)                 0         
=================================================================
Total params: 25,453
Trainable params: 25,453
Non-trainable params: 0
_________________________________________________________________
Train on 1986 samples, validate on 662 samples
Epoch 1/1600
 - 8s - loss: 1.0477 - acc: 0.4809 - val_loss: 0.9899 - val_acc: 0.5514
Epoch 2/1600
 - 2s - loss: 0.9854 - acc: 0.5181 - val_loss: 0.9557 - val_acc: 0.5242
…
