1986
662
1986
662
_________________________________________________________________
Layer (type)                 Output Shape              Param #   
=================================================================
reshape_1 (Reshape)          (None, 10, 50)            0         
_________________________________________________________________
time_distributed_1 (TimeDist (None, 10, 50)            2550      
_________________________________________________________________
time_distributed_2 (TimeDist (None, 10, 50)            2550      
_________________________________________________________________
lstm_1 (LSTM)                (None, 50)                20200     
_________________________________________________________________
dense_3 (Dense)              (None, 3)                 153       
_________________________________________________________________
activation_1 (Activation)    (None, 3)                 0         
=================================================================
Total params: 25,453
Trainable params: 25,453
Non-trainable params: 0
_________________________________________________________________
Train on 1986 samples, validate on 662 samples
Epoch 1/3000
 - 3s - loss: 1.0197 - acc: 0.4617 - val_loss: 0.9802 - val_acc: 0.5060
Epoch 2/3000
 - 2s - loss: 0.9575 - acc: 0.5161 - val_loss: 0.9216 - val_acc: 0.5438
…
