…
2019-04-11 10:46:49.406279: I tensorflow/core/common_runtime/gpu/gpu_device.cc:1105] Found device 0 with properties: 
name: GeForce GTX 980 major: 5 minor: 2 memoryClockRate(GHz): 1.266
pciBusID: 0000:0f:00.0
totalMemory: 3.95GiB freeMemory: 3.87GiB
2019-04-11 10:46:49.406304: I tensorflow/core/common_runtime/gpu/gpu_device.cc:1195] Creating TensorFlow device (/device:GPU:0) -> (device: 0, name: GeForce GTX 980, pci bus id: 0000:0f:00.0, compute capability: 5.2)
_________________________________________________________________
Layer (type)                 Output Shape              Param #   
=================================================================
dense_1 (Dense)              (None, 500)               250500    
_________________________________________________________________
dense_2 (Dense)              (None, 500)               250500    
_________________________________________________________________
reshape_1 (Reshape)          (None, 10, 50)            0         
_________________________________________________________________
lstm_1 (LSTM)                (None, 10, 100)           60400     
_________________________________________________________________
flatten_1 (Flatten)          (None, 1000)              0         
_________________________________________________________________
dense_3 (Dense)              (None, 3)                 3003      
_________________________________________________________________
activation_1 (Activation)    (None, 3)                 0         
=================================================================
Total params: 564,403
Trainable params: 564,403
Non-trainable params: 0
_________________________________________________________________
Train on 1990 samples, validate on 664 samples
Epoch 1/1600
 - 4s - loss: 1.0675 - acc: 0.4141 - val_loss: 1.0428 - val_acc: 0.4337
Epoch 2/1600
 - 2s - loss: 1.0284 - acc: 0.4643 - val_loss: 1.0123 - val_acc: 0.5301
…
