…
2019-04-30 17:07:07.184410: I tensorflow/core/common_runtime/gpu/gpu_device.cc:1105] Found device 0 with properties: 
name: GeForce GTX 980 major: 5 minor: 2 memoryClockRate(GHz): 1.2155
pciBusID: 0000:0f:00.0
totalMemory: 3.95GiB freeMemory: 3.87GiB
2019-04-30 17:07:07.184436: I tensorflow/core/common_runtime/gpu/gpu_device.cc:1195] Creating TensorFlow device (/device:GPU:0) -> (device: 0, name: GeForce GTX 980, pci bus id: 0000:0f:00.0, compute capability: 5.2)
_________________________________________________________________
Layer (type)                 Output Shape              Param #   
=================================================================
dense_1 (Dense)              (None, 500)               250500    
_________________________________________________________________
dense_2 (Dense)              (None, 500)               250500    
_________________________________________________________________
dense_3 (Dense)              (None, 500)               250500    
_________________________________________________________________
reshape_1 (Reshape)          (None, 10, 50)            0         
_________________________________________________________________
time_distributed_1 (TimeDist (None, 10, 100)           5100      
_________________________________________________________________
time_distributed_2 (TimeDist (None, 10, 100)           10100     
_________________________________________________________________
lstm_1 (LSTM)                (None, 100)               80400     
_________________________________________________________________
dense_6 (Dense)              (None, 3)                 303       
_________________________________________________________________
activation_1 (Activation)    (None, 3)                 0         
=================================================================
Total params: 847,403
Trainable params: 847,403
Non-trainable params: 0
_________________________________________________________________
Train on 1990 samples, validate on 664 samples
Epoch 1/1600
 - 4s - loss: 1.0423 - acc: 0.4261 - val_loss: 1.0092 - val_acc: 0.4699
Epoch 2/1600
 - 2s - loss: 0.9866 - acc: 0.5116 - val_loss: 0.9712 - val_acc: 0.5437
…
