_________________________________________________________________
Layer (type)                 Output Shape              Param #   
=================================================================
dense_1 (Dense)              (None, 500)               250500    
_________________________________________________________________
activation_1 (Activation)    (None, 500)               0         
_________________________________________________________________
dense_2 (Dense)              (None, 500)               250500    
_________________________________________________________________
activation_2 (Activation)    (None, 500)               0         
_________________________________________________________________
dense_3 (Dense)              (None, 500)               250500    
_________________________________________________________________
activation_3 (Activation)    (None, 500)               0         
_________________________________________________________________
dense_4 (Dense)              (None, 500)               250500    
_________________________________________________________________
activation_4 (Activation)    (None, 500)               0         
_________________________________________________________________
dense_5 (Dense)              (None, 100)               50100     
_________________________________________________________________
activation_5 (Activation)    (None, 100)               0         
=================================================================
Total params: 1,052,100
Trainable params: 1,052,100
Non-trainable params: 0
_________________________________________________________________
Train on 71123 samples, validate on 23708 samples
Epoch 1/500
 - 14s - loss: 4.3721 - acc: 0.0443 - top_k_categorical_accuracy: 0.1588 - val_loss: 4.2176 - val_acc: 0.0588 - val_top_k_categorical_accuracy: 0.2108
…
