_________________________________________________________________
Layer (type)                 Output Shape              Param #   
=================================================================
input (InputLayer)           (None, 500)               0         
_________________________________________________________________
dense_1 (Dense)              (None, 500)               250500    
_________________________________________________________________
dropout_1 (Dropout)          (None, 500)               0         
_________________________________________________________________
dense_2 (Dense)              (None, 500)               250500    
_________________________________________________________________
dropout_2 (Dropout)          (None, 500)               0         
_________________________________________________________________
dense_3 (Dense)              (None, 500)               250500    
_________________________________________________________________
dropout_3 (Dropout)          (None, 500)               0         
_________________________________________________________________
dense_4 (Dense)              (None, 500)               250500    
_________________________________________________________________
dropout_4 (Dropout)          (None, 500)               0         
_________________________________________________________________
output (Dense)               (None, 100)               50100     
=================================================================
Total params: 1,052,100
Trainable params: 1,052,100
Non-trainable params: 0
_________________________________________________________________
Train on 72605 samples, validate on 24202 samples
Epoch 1/500
14s - loss: 4.4048 - acc: 0.0384 - top_k_categorical_accuracy: 0.1460 - val_loss: 4.2494 - val_acc: 0.0586 - val_top_k_categorical_accuracy: 0.2009
…
