*************************make data************************
_________________________________________________________________
Layer (type)                 Output Shape              Param #   
=================================================================
reshape_1 (Reshape)          (None, 30, 50)            0         
_________________________________________________________________
time_distributed_1 (TimeDist (None, 30, 50)            2550      
_________________________________________________________________
time_distributed_2 (TimeDist (None, 30, 50)            2550      
_________________________________________________________________
lstm_1 (LSTM)                (None, 50)                20200     
_________________________________________________________________
dense_3 (Dense)              (None, 100)               5100      
_________________________________________________________________
activation_1 (Activation)    (None, 100)               0         
=================================================================
Total params: 30,400
Trainable params: 30,400
Non-trainable params: 0
_________________________________________________________________
*************************make model************************
Train on 64164 samples, validate on 21389 samples
Epoch 1/1200
142s - loss: 4.5411 - acc: 0.0252 - top_k_categorical_accuracy: 0.1068 - val_loss: 4.4612 - val_acc: 0.0351 - val_top_k_categorical_accuracy: 0.1384
…
