_________________________________________________________________
Layer (type)                 Output Shape              Param #   
=================================================================
dense_1 (Dense)              (None, 500)               250500    
_________________________________________________________________
activation_1 (Activation)    (None, 500)               0         
_________________________________________________________________
dropout_1 (Dropout)          (None, 500)               0         
_________________________________________________________________
dense_2 (Dense)              (None, 500)               250500    
_________________________________________________________________
activation_2 (Activation)    (None, 500)               0         
_________________________________________________________________
dropout_2 (Dropout)          (None, 500)               0         
_________________________________________________________________
dense_3 (Dense)              (None, 500)               250500    
_________________________________________________________________
activation_3 (Activation)    (None, 500)               0         
_________________________________________________________________
dropout_3 (Dropout)          (None, 500)               0         
_________________________________________________________________
dense_4 (Dense)              (None, 500)               250500    
_________________________________________________________________
activation_4 (Activation)    (None, 500)               0         
_________________________________________________________________
dropout_4 (Dropout)          (None, 500)               0         
_________________________________________________________________
dense_5 (Dense)              (None, 3)                 1503      
_________________________________________________________________
activation_5 (Activation)    (None, 3)                 0         
=================================================================
Total params: 1,003,503
Trainable params: 1,003,503
Non-trainable params: 0
_________________________________________________________________
Train on 1986 samples, validate on 662 samples
Epoch 1/1600
 - 2s - loss: 0.9905 - acc: 0.5121 - val_loss: 0.9093 - val_acc: 0.5604
Epoch 2/1600
 - 0s - loss: 0.9160 - acc: 0.5564 - val_loss: 0.8740 - val_acc: 0.5695
…
