…
2019-01-18 00:40:04.016672: I tensorflow/core/common_runtime/gpu/gpu_device.cc:1105] Found device 0 with properties: 
name: GeForce GTX 980 major: 5 minor: 2 memoryClockRate(GHz): 1.266
pciBusID: 0000:0f:00.0
totalMemory: 3.95GiB freeMemory: 3.86GiB
2019-01-18 00:40:04.016697: I tensorflow/core/common_runtime/gpu/gpu_device.cc:1195] Creating TensorFlow device (/device:GPU:0) -> (device: 0, name: GeForce GTX 980, pci bus id: 0000:0f:00.0, compute capability: 5.2)
_________________________________________________________________
Layer (type)                 Output Shape              Param #   
=================================================================
dense_1 (Dense)              (None, 500)               250500    
_________________________________________________________________
activation_1 (Activation)    (None, 500)               0         
_________________________________________________________________
dense_2 (Dense)              (None, 500)               250500    
_________________________________________________________________
batch_normalization_1 (Batch (None, 500)               2000      
_________________________________________________________________
activation_2 (Activation)    (None, 500)               0         
_________________________________________________________________
dense_3 (Dense)              (None, 500)               250500    
_________________________________________________________________
batch_normalization_2 (Batch (None, 500)               2000      
_________________________________________________________________
activation_3 (Activation)    (None, 500)               0         
_________________________________________________________________
dense_4 (Dense)              (None, 500)               250500    
_________________________________________________________________
batch_normalization_3 (Batch (None, 500)               2000      
_________________________________________________________________
activation_4 (Activation)    (None, 500)               0         
_________________________________________________________________
dense_5 (Dense)              (None, 3)                 1503      
_________________________________________________________________
activation_5 (Activation)    (None, 3)                 0         
=================================================================
Total params: 1,009,503
Trainable params: 1,006,503
Non-trainable params: 3,000
_________________________________________________________________
Train on 1990 samples, validate on 664 samples
Epoch 1/1600
 - 2s - loss: 0.9435 - acc: 0.5302 - val_loss: 0.8342 - val_acc: 0.6431
Epoch 2/1600
 - 1s - loss: 0.7263 - acc: 0.6668 - val_loss: 0.7727 - val_acc: 0.6280
…
