…
2019-01-18 00:23:55.866656: I tensorflow/core/common_runtime/gpu/gpu_device.cc:1105] Found device 0 with properties: 
name: GeForce GTX 980 major: 5 minor: 2 memoryClockRate(GHz): 1.266
pciBusID: 0000:0f:00.0
totalMemory: 3.95GiB freeMemory: 3.86GiB
2019-01-18 00:23:55.866709: I tensorflow/core/common_runtime/gpu/gpu_device.cc:1195] Creating TensorFlow device (/device:GPU:0) -> (device: 0, name: GeForce GTX 980, pci bus id: 0000:0f:00.0, compute capability: 5.2)
_________________________________________________________________
Layer (type)                 Output Shape              Param #   
=================================================================
dense_1 (Dense)              (None, 500)               250500    
_________________________________________________________________
activation_1 (Activation)    (None, 500)               0         
_________________________________________________________________
dense_2 (Dense)              (None, 500)               250500    
_________________________________________________________________
activation_2 (Activation)    (None, 500)               0         
_________________________________________________________________
dense_3 (Dense)              (None, 500)               250500    
_________________________________________________________________
activation_3 (Activation)    (None, 500)               0         
_________________________________________________________________
dense_4 (Dense)              (None, 500)               250500    
_________________________________________________________________
activation_4 (Activation)    (None, 500)               0         
_________________________________________________________________
dense_5 (Dense)              (None, 3)                 1503      
_________________________________________________________________
activation_5 (Activation)    (None, 3)                 0         
=================================================================
Total params: 1,003,503
Trainable params: 1,003,503
Non-trainable params: 0
_________________________________________________________________
Train on 1990 samples, validate on 664 samples
Epoch 1/1600
 - 2s - loss: 1.0767 - acc: 0.4156 - val_loss: 1.0612 - val_acc: 0.4367
Epoch 2/1600
 - 0s - loss: 1.0514 - acc: 0.4276 - val_loss: 1.0389 - val_acc: 0.4367
…
